Output/ant_bee_best_score0.306.pt (torch, 802339 bytes, 21 tensors)

weight f4 [6, 3, 3, 3]
-0.61765856 -0.45455942 -0.5023058 -0.5991302 -0.7765545 -0.6949993 -0.4435807 -0.7723207
-0.78094035 -0.4672478 -0.60906553 -0.6152279 -0.71524364 -0.63875717 -0.6694604 -0.7835269
-0.6627784 -0.44663188 -0.5241409 -0.48060656 -0.44980085 -0.50869113 -0.50027 -0.5244634
-0.78417474 -0.4206394 -0.4884061 0.7801951 -0.71286887 -0.72669816 0.75800323 0.48092636
-0.6027937 0.6783286 0.7464861 0.42718616 0.74837697 -0.6176595 -0.5244659 0.4234221
0.6845512 -0.40749854 0.63494235 0.56182593 0.60648054 0.52084434 -0.6928172 -0.5010224
0.7254467 0.6644334 -0.75827307 0.4305428 0.4316735 0.6618931 -0.58906454 -0.5308365
-0.6133905 -0.65221804 -0.525086 -0.6863234 -0.55719656 -0.7144781 -0.6263918 -0.4893174
-0.42287868 -0.653334 -0.5016332 -0.7137463 -0.48359987 -0.563057 -0.475982 -0.5363024
-0.5435068 -0.57670504 -0.52604324 -0.7028095 -0.43628553 -0.6817328 -0.7704116 -0.4433696
-0.43435705 -0.5152155 -0.463975 -0.4732467 -0.78548545 -0.63334405 -0.75477815 -0.77122855
-0.72671276 -0.7536201 -0.45029715 -0.41968796 -0.5627491 -0.5992482 -0.53646296 -0.66171867
-0.43296784 -0.7031289 -0.73824346 -0.52521044 -0.44825026 -0.42012757 -0.700049 -0.5248737
-0.45562673 -0.6761526 -0.5546719 -0.5149174 -0.5658853 -0.64626306 -0.48645648 -0.4476282
-0.49634576 -0.515619 -0.7849151 -0.6480918 -0.4457702 -0.49674308 -0.7110909 -0.56854475
-0.58101696 -0.5002086 -0.45895815 -0.72177076 -0.57294273 -0.6608385 -0.5413052 -0.68402356
-0.4998125 -0.50351727 -0.67407495 -0.7792511 -0.7740526 -0.4950505 -0.6348271 0.5135735
0.7362775 0.5570309 0.5721419 0.73182076 0.53836083 0.5012006 0.5373514 0.4464485
0.5667072 0.6332543 0.57587993 0.7848477 0.58830214 0.5513131 0.79181063 0.44200018
0.602061 0.7194585 0.7401047 0.7688957 0.6806538 0.72649425 0.42640555 0.51542705
0.5564592 0.5115924
00000000: df1e 1ebf 03bc e8be 1d97 00bf 9960 19bf
00000010: 47cc 46bf 79eb 31bf 021d e3be cfb6 45bf
00000020: b5eb 47bf 1b3b efbe b8eb 1bbf 937f 1dbf
00000030: 351a 37bf 9785 23bf c261 2bbf 3895 48bf
00000040: d8ab 29bf efac e4be 192e 06bf 1012 f6be
00000050: 4c4c e6be 9539 02bf b211 00bf 3c43 06bf
00000060: adbf 48bf 0c5e d7be 5d10 fabe deba 473f
00000070: 937e 36bf e408 3abf 800c 423f fb3b f63e
00000080: b050 1abf f1a6 2d3f b719 3f3f 25b8 da3e
00000090: a295 3f3f ef1e 1ebf 6643 06bf c8ca d83e
000000a0: bf3e 2f3f a6a3 d0be 958b 223f d3d3 0f3f
000000b0: 4f42 1b3f 0e56 053f 785c 31bf 0143 00bf
000000c0: e0b6 393f 4f18 2a3f 2f1e 42bf 1b70 dc3e
000000d0: 4f04 dd3e d471 293f efcc 16bf e7e4 07bf
000000e0: 2907 1dbf c3f7 26bf 096c 06bf e4b2 2fbf
000000f0: 6fa4 0ebf 09e8 36bf 375b 20bf cf87 fabe
00000100: 8e83 d8be e640 27bf 096b 00bf 14b8 36bf
00000110: 679a f7be 8124 10bf eab3 f3be 1d4b 09bf
00000120: 4323 0bbf f1a2 13bf c5aa 06bf 53eb 33bf
00000130: d160 dfbe 0a86 2ebf b239 45bf 5701 e3be
00000140: 0c64 debe 2ae5 03bf 228e edbe 644d f2be
00000150: 9315 49bf d622 22bf 2439 41bf 3c6f 45bf
00000160: d909 3abf 3fed 40bf 598d e6be 57e1 d6be
00000170: 5310 10bf 5468 19bf a355 09bf 6566 29bf
00000180: f6ad ddbe 4100 34bf 86fd 3cbf 3174 06bf
00000190: 0f81 e5be f61a d7be 6936 33bf 1f5e 06bf
000001a0: e847 e9be 5618 2dbf fafe 0dbf a0d1 03bf
000001b0: dcdd 10bf 7f71 25bf d310 f9be 862f e5be
000001c0: 0821 febe 9bff 03bf 32f0 48bf 58e9 25bf
000001d0: fe3b e4be 1c55 febe 0e0a 36bf 268c 11bf
000001e0: 87bd 14bf ac0d 00bf 90fc eabe f8c5 38bf
000001f0: 60ac 12bf b62c 29bf fa92 0abf 2b1c 2fbf
00000200: 6de7 ffbe 82e6 00bf 2d90 2cbf 007d 47bf
00000210: 5028 46bf 4277 fdbe 0784 22bf 8e79 033f
00000220: af7c 3c3f 9499 0e3f e477 123f 9b58 3b3f
00000230: 04d2 093f af4e 003f dd8f 093f e694 e43e
00000240: b913 113f f41c 223f de6c 133f c7eb 483f
00000250: f89a 163f db22 0d3f 1ab4 4a3f d94d e23e
00000260: ab20 1a3f 6f2e 383f 8077 3d3f 59d6 443f
00000270: 543f 2e3f 87fb 393f d451 da3e 07f3 033f
00000280: 1c74 0e3f b8f7 023f

bias f4 [6]
-0.7330579 0.60530424 -0.48979878 -0.6339391 -0.5777525 0.5230724
00000000: afa9 3bbf 38f5 1a3f e8c6 fabe d549 22bf
00000010: 96e7 13bf 13e8 053f

weight f4 [8, 6, 3, 3]
-0.5178336 0.44455245 0.4956238 -0.56945884 -0.6331689 0.6006527 -0.6189152 0.33467332
-0.6096743 0.64886373 0.5241113 -0.53477967 0.46022147 0.57707447 0.40271696 -0.65394247
-0.5910543 -0.4831831 0.51784986 0.66365755 0.6554651 0.4711753 0.64282453 0.62773204
0.47368643 0.659202 0.5116124 0.6530964 0.66526645 0.5876379 -0.4516631 -0.62836283
0.6596594 -0.69721085 -0.46709353 0.62211525 0.47367507 0.5212291 0.69386506 0.47394064
0.6803245 0.68869156 0.5090374 0.47463793 0.622575 -0.4146904 -0.60146046 -0.46030882
-0.48892543 -0.45377058 -0.6932002 -0.46820197 -0.5696364 -0.69787115 -0.6904241 -0.5630842
-0.49063727 -0.4753121 -0.51637197 -0.647367 -0.7029205 -0.47336176 -0.58313423 -0.57466775
-0.47351933 -0.48373175 0.63557905 -0.5404133 -0.69485295 0.5235745 0.45338717 -0.6417277
-0.67263824 -0.5117738 -0.67367774 -0.70116925 -0.53903204 -0.5913173 -0.68339205 -0.65203196
-0.557623 -0.55760866 -0.64476174 -0.50253725 -0.521095 -0.5556646 -0.48923805 -0.5729775
-0.6225725 -0.6922649 -0.5418703 -0.5387903 -0.5364887 -0.4796229 -0.63968945 -0.6214315
-0.46944425 -0.6503002 -0.63183725 -0.67941135 -0.549916 -0.69692814 -0.64064115 -0.58602333
-0.61205643 -0.556449 -0.6933954 -0.72932255 -0.5835227 -0.56094074 -0.49806195 -0.50323063
-0.56631213 -0.48533955 -0.50697076 -0.59117395 -0.46767423 0.670948 0.72107065 0.6915675
0.5791368 0.7236535 0.5425196 0.7111678 0.6888469 0.70668155 0.5987108 0.63455224
-0.62357825 0.63361907 0.6119634 0.41044062 0.5339009 0.6364672 0.56449556 -0.60039926
-0.6372473 -0.6759702 -0.5965746 -0.5200293 -0.6785438 -0.53218067 -0.6434074 -0.53398234
-0.64659435 -0.67318726 -0.48843762 -0.58270067 -0.5054495 -0.4650293 -0.45933744 -0.6107314
-0.4611817 -0.5737238 -0.55785096 -0.48005342 -0.573104 -0.5204863 -0.6257206 -0.67806137
0.57434046 0.7045513 0.67613566 0.530252 0.54138005 0.6152211 0.57214975 0.7053302
0.70600736 0.6341933 0.5588461 0.5763489 0.61905205 0.6907519 0.48069334 0.72147536
0.62634 0.6215931 0.58927524 0.5229695 0.5682757 0.6344894 0.48657566 0.56320095
0.69608915 0.5316261 0.60452545 0.5463418 0.5370201 0.5033337 0.48659128 0.6316473
0.7258613 0.4870836 0.485159 0.72430277 0.5916598 0.63023114 0.6009836 0.68764997
0.64369744 0.6275048 0.6868531 0.57705206 0.7118439 0.63230366 0.6915368 0.67167485
0.63673246 0.6928386 0.5498045 0.46502173 0.5557797 0.4877912 0.7149188 0.6704418
-0.53596294 -0.68589306 -0.5769843 -0.6367536 -0.4885387 -0.68602306 -0.5762987 -0.6794403
-0.6550077 -0.51957595 -0.48587438 -0.58118093 -0.46094275 -0.63563657 -0.53589165 -0.60624015
-0.677287 -0.6330217 -0.62964934 -0.511496 -0.6942186 -0.6287019 -0.51439774 -0.580237
-0.65689284 -0.5330509 -0.48416713 -0.50692064 -0.51528275 -0.6116181 -0.51464397 -0.69164467
-0.5544519 -0.70403725 -0.51618344 -0.6885241 -0.6239239 -0.72692513 -0.5217896 -0.55074114
00000000: be90 04bf 619c e33e 67c2 fd3e 0ec8 11bf
00000010: 5b17 22bf 60c4 193f 3a71 1ebf 4d5a ab3e
00000020: 9d13 1cbf ef1b 263f 282c 063f 52e7 08bf
00000030: 26a2 eb3e 27bb 133f eb30 ce3e c668 27bf
00000040: 564f 17bf c663 f7be cf91 043f 76e5 293f
00000050: 90cc 273f e43d f13e 2690 243f 0cb3 203f
00000060: 0787 f23e 76c1 283f 08f9 023f 5331 273f
00000070: e74e 2a3f 706f 163f 6340 e7be 63dc 20bf
00000080: 70df 283f 697c 32bf e226 efbe f242 1f3f
00000090: 8a85 f23e 456f 053f 24a1 313f 59a8 f23e
000000a0: bf29 2e3f 174e 303f 4650 023f be03 f33e
000000b0: 1361 1f3f 4d52 d4be 50f9 19bf 99ad ebbe
000000c0: 6f54 fabe 9e54 e8be 9175 31bf 2bb8 efbe
000000d0: b1d3 11bf afa7 32bf a2bf 30bf 4926 10bf
000000e0: cf34 fbbe 1c5c f3be f430 04bf d8b9 25bf
000000f0: 99f2 33bf 795c f2be 4948 15bf 6d1d 13bf
00000100: 2071 f2be b0ab f7be 4fb5 223f 8758 0abf
00000110: e2e1 31bf fa08 063f 5d22 e83e 4448 24bf
00000120: 0532 2cbf 9c03 03bf 2576 2cbf d47f 33bf
00000130: 01fe 09bf 9260 17bf c8f2 2ebf 91eb 26bf
00000140: 62c0 0ebf 71bf 0ebf 1b0f 25bf 48a6 00bf
00000150: 7b66 05bf 0940 0ebf 697d fabe a7ae 12bf
00000160: e960 1fbf 4638 31bf 03b8 0abf 29ee 09bf
00000170: 5357 09bf 2291 f5be b0c2 23bf 2316 1fbf
00000180: ff5a f0be 137a 26bf 16c0 21bf e7ed 2dbf
00000190: 4cc7 0cbf e269 32bf 0f01 24bf a005 16bf
000001a0: bbaf 1cbf 7173 0ebf 5c82 31bf e2b4 3abf
000001b0: be61 15bf d099 0fbf fa01 ffbe b9d3 00bf
000001c0: d5f9 10bf 6d7e f8be d6c8 01bf 2d57 17bf
000001d0: ff72 efbe 40c3 2b3f 1698 383f 910a 313f
000001e0: 4f42 143f 5b41 393f 91e2 0a3f 180f 363f
000001f0: 4558 303f 15e9 343f 1c45 193f 0472 223f
00000200: d3a2 1fbf dc34 223f a2a9 1c3f 4625 d23e
00000210: bbad 083f 84ef 223f c882 103f c4b3 19bf
00000220: a422 23bf 620c 2dbf 1db9 18bf a420 05bf
00000230: 0cb5 2dbf fe3c 08bf 59b6 24bf 11b3 08bf
00000240: 3587 25bf 0056 2cbf 7f14 fabe df2b 15bf
00000250: 2365 01bf 5218 eebe 472e ebbe e558 1cbf
00000260: 0220 ecbe 90df 12bf 52cf 0ebf 90c9 f5be
00000270: f2b6 12bf 973e 05bf 3a2f 20bf 6e95 2dbf
00000280: fa07 133f 795d 343f 3a17 2d3f 98be 073f
00000290: e297 0a3f 217f 1d3f 6878 123f 8590 343f
000002a0: e6bc 343f 7e5a 223f 8a10 0f3f 9a8b 133f
000002b0: 327a 1e3f 1ed5 303f 701d f63e 9cb2 383f
000002c0: d157 203f ba20 1f3f beda 163f 54e1 053f
000002d0: 847a 113f e66d 223f 7220 f93e f02d 103f
000002e0: e632 323f a618 083f 2ec2 1a3f 0edd 0b3f
000002f0: 267a 093f 7ada 003f 7e22 f93e a3b3 213f
00000300: 0cd2 393f 0663 f93e c366 f83e e86b 393f
00000310: 0477 173f d456 213f 10da 193f d409 303f
00000320: 5bc9 243f 28a4 203f 9bd5 2f3f afb9 133f
00000330: 673b 363f a7de 213f 8e08 313f e2f2 2b3f
00000340: e600 233f df5d 313f fdbf 0c3f 5417 ee3e
00000350: 9447 0e3f c5bf f93e eb04 373f 13a2 2b3f
00000360: de34 09bf b096 2fbf 3eb5 13bf 4902 23bf
00000370: bf21 fabe 359f 2fbf 5088 13bf cdef 2dbf
00000380: 96ae 27bf ee02 05bf 87c4 f8be 46c8 14bf
00000390: b000 ecbe 14b9 22bf 3230 09bf 8e32 1bbf
000003a0: ae62 2dbf b60d 22bf b330 21bf 67f1 02bf
000003b0: 4fb8 31bf 9cf2 20bf 92af 03bf 698a 14bf
000003c0: 212a 28bf 0676 08bf c1e4 f7be 8dc5 01bf
000003d0: 92e9 03bf 0193 1cbf b5bf 03bf a00f 31bf
000003e0: 8ff0 0dbf c93b 34bf 9924 04bf 1e43 30bf
000003f0: 7ab9 1fbf c417 3abf 0194 05bf 5ffd 0cbf

bias f4 [8]
0.7337658 -0.49686006 0.50861025 0.6846474 -0.65541106 -0.124222025 -0.65222937 -0.4750387
00000000: 13d8 3b3f 7164 febe 4834 023f 0d45 2f3f
00000010: 05c9 27bf 1e68 febd 81f8 26bf 4638 f3be

weight f4 [16, 8, 3, 3]
-0.47941154 -0.6842482 -0.56410265 -0.53336996 -0.51556873 -0.59047306 -0.7024095 -0.6478102
-0.5554165 -0.67167056 -0.5836131 -0.54703677 -0.70403546 -0.59068143 -0.5773206 -0.6232171
-0.53043085 -0.6358464 -0.6094199 -0.6329242 -0.6829706 -0.5365028 -0.5965236 -0.6732942
-0.5545321 -0.59726727 -0.5146295 -0.59174234 -0.5477979 -0.63857406 -0.6470853 -0.49925733
-0.48030698 -0.4896988 -0.6649303 -0.614124 -0.49773526 -0.6029166 -0.4792072 -0.6563482
-0.6488017 -0.6595262 -0.7033115 -0.65576065 -0.4991732 0.021371774 -0.07838473 -0.018379606
0.05189789 0.10524774 0.09678755 0.0045650527 -0.105093814 0.039541744 -0.10524942 0.048839502
0.11101938 0.052611582 -0.00459186 -0.0022710934 -0.09566049 -0.0471194 -0.11307551 -0.71531403
-0.63888884 -0.48522437 -0.4866496 -0.5327518 -0.69089615 -0.5338038 -0.6589053 -0.5849648
0.6850329 0.5986985 0.63548785 0.5755722 0.49095064 0.6809156 0.5210295 0.6197764
0.6782206 0.5913536 0.67833287 0.63023806 0.64584523 0.5357866 0.49481112 0.49031523
0.6811007 0.6865669 0.70013267 0.64273393 0.6796207 0.5970545 0.64773965 0.66410685
0.66612816 0.6444459 0.69917786 0.70357704 0.6682084 0.49350104 0.6577514 0.59047806
0.5792446 0.68174005 0.54065865 0.59035087 0.5142884 0.5465067 0.50856775 0.59892994
0.69307256 0.60319024 0.68478835 0.68722296 0.7111314 -0.040663473 0.04848028 -0.056907237
0.062828965 -0.052333184 -0.0091932565 -0.11637103 -0.0713509 0.010243289 0.4220659 0.40297464
0.4008368 0.28268814 0.16468652 -0.34950206 0.32148963 0.15665093 0.05754269 0.69710094
0.5682714 0.70487106 0.6597446 0.70616573 0.60268015 0.62141037 0.6469308 0.50275457
-0.66634357 -0.55252934 -0.54386985 -0.51998454 -0.4847139 -0.65684897 -0.58737993 -0.6724427
-0.6152228 -0.6615488 -0.6887939 -0.5292161 -0.5564382 -0.52131283 -0.6243396 -0.67690235
-0.6023281 -0.61136264 0.48600268 0.5449732 0.5294458 0.5188373 0.61645395 0.66827387
0.5148986 0.5093877 0.6043932 -0.6509294 -0.5748241 -0.69792664 -0.5658358 -0.52696896
-0.5457676 -0.65902776 -0.67745113 -0.5104848 -0.7091694 -0.49710688 -0.70588297 -0.5880182
-0.6987286 -0.60821944 -0.50616044 -0.597186 -0.7074961 -0.10004926 -0.09699738 0.01847995
-0.071180806 0.063697 -0.059157893 -0.09718345 -0.10383104 -0.092963584 -0.31359074 0.08568196
0.2204244 0.13315347 0.1058732 0.13452192 0.41260952 0.26204452 -0.013175455 -0.5413574
-0.7098315 -0.64019126 -0.5070826 -0.6689927 -0.49461502 -0.5515755 -0.54227144 -0.6941773
-0.5355346 -0.6667045 -0.66200644 -0.51186115 -0.6465859 -0.5926665 -0.64846474 -0.6682677
-0.6267964 -0.48487812 -0.4966073 -0.5324641 -0.59507215 -0.6759484 -0.5496408 -0.6103469
-0.5073083 -0.52603686 -0.57917786 -0.6018654 -0.5385507 -0.63363725 -0.56036633 -0.59755397
-0.5959212 -0.67706126 -0.625172 -0.67677575 -0.59098464 -0.5387327 -0.7074042 -0.5335212
-0.61127245 -0.52508014 -0.70409614 -0.4923075 -0.49953482 -0.55838233 -0.58897495 -0.5066474
00000000: 6e75 f5be e42a 2fbf 0869 10bf ef8a 08bf
00000010: 50fc 03bf 3e29 17bf 1cd1 33bf e4d6 25bf
00000020: c72f 0ebf 9af2 2bbf ab67 15bf 9a0a 0cbf
00000030: ab3b 34bf e636 17bf 48cb 13bf 288b 1fbf
00000040: 51ca 07bf d4c6 22bf f102 1cbf 5207 22bf
00000050: 29d7 2ebf 3f58 09bf c5b5 18bf 025d 2cbf
00000060: d1f5 0dbf 82e6 18bf c2be 03bf 6d7c 17bf
00000070: 7c3c 0cbf 9779 23bf 62a7 25bf a89e ffbe
00000080: ccea f5be cdb9 fabe df38 2abf 3b37 1dbf
00000090: 28d7 febe be58 1abf a55a f5be 7006 28bf
000000a0: de17 26bf b6d6 28bf 390c 34bf eedf 27bf
000000b0: a193 ffbe dc13 af3c 2c88 a0bd d490 96bc
000000c0: e292 543d 218c d73d 8d38 c63d 7096 953b
000000d0: 6d3b d7bd 86f6 213d 028d d7bd ee0b 483d
000000e0: 215e e33d 3e7f 573d 5077 96bb a0d6 14bb
000000f0: a6e9 c3bd 4600 41bd 2294 e7bd d21e 37bf
00000100: 388e 23bf 546f f8be 232a f9be 6c62 08bf
00000110: 92de 30bf 5ea7 08bf 05ae 28bf 41c0 15bf
00000120: 515e 2f3f 4e44 193f 55af 223f b358 133f
00000130: e25d fb3e 7c50 2e3f 3062 053f aba9 1e3f
00000140: de9f 2d3f f362 173f 39a7 2d3f 4857 213f
00000150: 1d56 253f 5029 093f e257 fd3e 990a fb3e
00000160: 9e5c 2e3f d9c2 2f3f e53b 333f 368a 243f
00000170: 9ffb 2d3f 90d8 183f 44d2 253f e802 2a3f
00000180: 6087 2a3f 68fa 243f 52fd 323f a01d 343f
00000190: b50f 2b3f 2bac fc3e 6562 283f 9229 173f
000001a0: 6049 143f 8486 2e3f 9b68 0a3f 3c21 173f
000001b0: 68a8 033f dde7 0b3f 7f31 023f 7953 193f
000001c0: 346d 313f ad6a 1a3f 4a4e 2f3f d8ed 2f3f
000001d0: b50c 363f be8e 26bd 4293 463d 9017 69bd
000001e0: 79ac 803d 525b 56bd 509f 16bc ef53 eebd
000001f0: 6c20 92bd 78d3 273c 0619 d83e b152 ce3e
00000200: 7b3a cd3e 80bc 903e 95a3 283e eff1 b2be
00000210: 4a9a a43e 1a69 203e e2b1 6b3d 3575 323f
00000220: 3c7a 113f 6e72 343f 06e5 283f 47c7 343f
00000230: 3f49 1a3f c014 1f3f 429d 253f 86b4 003f
00000240: 7e95 2abf 9072 0dbf 0e3b 0bbf b51d 05bf
00000250: 6c2c f8be 4127 28bf 885e 16bf 3425 2cbf
00000260: 3e7f 1dbf 435b 29bf cc54 30bf b57a 07bf
00000270: bc72 0ebf c274 05bf b8d4 1fbf 7949 2dbf
00000280: 2d32 1abf 4382 1cbf 58d5 f83e 5d83 0b3f
00000290: c389 073f 85d2 043f edcf 1d3f ff13 2b3f
000002a0: 65d0 033f 3b67 023f 83b9 1a3f 4fa3 26bf
000002b0: ac27 13bf 52ab 32bf 9dda 10bf 70e7 06bf
000002c0: 6db7 0bbf 0bb6 28bf 706d 2dbf 22af 02bf
000002d0: 208c 35bf cb84 febe bfb4 34bf 5c88 16bf
000002e0: e1df 32bf 45b4 1bbf bb93 01bf 2fe1 18bf
000002f0: 771e 35bf a0e6 ccbd 90a6 c6bd 4463 973c
00000300: 3ec7 91bd 9373 823d 8c4f 72bd 1e08 c7bd
00000310: 5ea5 d4bd b163 bebd f78e a0be 067a af3d
00000320: efb6 613e 6259 083e 0cd4 d83d 1dc0 093e
00000330: 8e41 d33e b32a 863e dddd 57bc 6696 0abf
00000340: 84b7 35bf 93e3 23bf 2ad0 01bf 1b43 2bbf
00000350: 2e3e fdbe 0d34 0dbf 4dd2 0abf 9bb5 31bf
00000360: cc18 09bf 25ad 2abf 4179 29bf 5509 03bf
00000370: a786 25bf feb8 17bf c901 26bf 9813 2bbf
00000380: bb75 20bf f241 f8be 5043 febe 914f 08bf
00000390: a656 18bf f40a 2dbf 42b5 0cbf b23f 1cbf
000003a0: f5de 01bf 5aaa 06bf 0045 14bf da13 1abf
000003b0: 75de 09bf 0d36 22bf 2b74 0fbf 4cf9 18bf
000003c0: 4b8e 18bf e353 2dbf 460b 20bf 2d41 2dbf
000003d0: c54a 17bf 63ea 09bf 7118 35bf d894 08bf
000003e0: 5a7c 1cbf a76b 06bf a53f 34bf bb0f fcbe
000003f0: 07c3 ffbe 25f2 0ebf 10c7 16bf a5b3 01bf

bias f4 [16]
-0.6633326 0.7177992 -0.5583881 -0.58883035 0.49948236 -0.62210596 -0.60663617 -0.6519578
-0.06472598 -0.09795934 -0.095073216 0.60727495 0.067191266 -0.5608235 0.6955497 -0.06621057
00000000: 2ad0 29bf b0c1 373f 86f2 0ebf 96bd 16bf
00000010: 27bc ff3e 5642 1fbf 824c 1bbf b5e6 26bf
00000020: 0e8f 84bd e89e c8bd bfb5 c2bd 5f76 1b3f
00000030: 939b 893d 2192 0fbf 8c0f 323f 6899 87bd

weight f4 [32, 16, 3, 3]
-0.0001944676 0.03222651 -0.048363805 0.02934432 -0.08047557 -0.038322996 -0.03467561 0.070832156
-0.031100284 -0.0018848479 0.0663648 0.06289103 -0.02659773 -0.052782737 0.06442524 -0.06571637
-0.06307393 0.020392142 -0.03927356 -0.05560848 -0.046741836 0.026784748 0.049611337 -0.02549868
-0.0010499582 -0.05798937 0.044713624 -0.027398549 0.018897213 0.032195784 0.0067698956 0.071625866
0.061705194 -0.011535428 0.066859774 -0.00014372915 -0.035979055 -0.06035159 -0.050669324 0.01624962
-0.07824537 0.072517104 0.08026139 0.08215993 -0.055969022 0.019389309 -0.035433322 0.03602291
-0.022064447 0.0768001 -0.002909325 -0.045861464 0.0079637095 -0.018661112 -0.004087977 0.07139773
0.045580007 -0.064931266 -0.024864964 -0.036848545 -0.08317758 0.053526826 0.0043078437 -0.008303732
-0.017782778 0.026866995 0.005341746 -0.06122765 -0.0067060366 0.017228328 0.08011053 0.02413503
0.042247258 0.034735076 -0.043498665 -0.049517166 0.062167294 -0.01928705 0.08300332 0.08104322
-0.06660726 -0.0675275 -0.016563676 0.039503552 0.026303686 -0.03799094 -0.056425363 -0.020492055
0.004760064 0.01777175 0.020120434 -0.027439438 -0.08095884 0.06874747 -0.037709445 -0.06251873
0.06583134 -0.080524646 0.0020985827 -0.042825036 -0.0076149926 -0.07605188 0.022962011 -0.041213572
-0.004402466 0.03155172 0.08293717 -0.067307174 -0.012253337 -0.025253963 0.039925776 -0.06271507
-0.041526467 0.028303988 -0.042763185 -0.024665438 0.059580795 -0.014977448 -0.067000195 -0.0344645
-0.04399266 -0.07867794 -0.0044669807 -0.055230193 -0.05738349 -0.06438889 -0.021110427 0.012955517
0.0723268 0.015167899 -0.01675921 -0.06677438 -0.0067675635 -0.060048126 -0.06111785 0.007285215
-0.066719584 0.057585083 -0.007229507 -0.03683486 -0.07726907 0.018147878 -0.041429065 0.013909131
-0.523114 0.47089615 0.5488388 -0.51237965 -0.37824798 0.4420258 -0.42906308 -0.4443154
0.3924665 0.6035595 0.6605133 0.6164114 0.6745218 0.5470187 0.6308985 0.63801396
0.5859736 0.6360818 0.62024534 0.6731863 0.52232915 0.58293974 0.6614475 0.6444538
0.5308287 0.59162736 0.6487978 0.5586756 0.6740926 0.68154705 0.5402985 0.51808065
0.5344221 0.6406422 0.64245206 0.59393305 0.16794151 0.0926465 0.4019273 -0.021063158
-0.12105819 0.2477156 0.3466623 0.40299115 0.4655293 0.60903156 0.59958804 0.5166725
0.659143 0.6594033 0.5315778 0.6570324 0.61385494 0.5404363 0.55811244 0.58106315
0.56508106 0.64076 0.5220335 0.5944294 0.64939696 0.5793464 0.6601676 0.60255826
0.6475376 0.5555124 0.66535777 0.59762573 0.59099805 0.62960225 0.61015224 0.6646388
-0.001116246 0.067807086 -0.082421765 0.030969739 -0.042361878 0.0021487996 0.043292247 0.07415826
-0.07384922 -0.04838436 0.060992427 -0.0064735115 0.015461959 -0.012142532 -0.018072158 -0.07102142
-0.06734215 -0.0074438825 0.036401957 0.07847514 -0.076501235 -0.01737862 -0.055585645 0.06925475
-0.034030937 0.07786507 0.024491996 0.55807173 0.65411633 0.61064976 0.67309445 0.5349836
0.55469245 0.6295846 0.6333884 0.61515796 -0.06604447 -0.017423004 0.035419583 -0.07229729
00000000: 00ea 4bb9 f2ff 033d 2019 46bd 8063 f03c
00000010: 60d0 a4bd 93f8 1cbd 0308 0ebd 7310 913d
00000020: 06c6 febc 000d f7ba 45ea 873d 03cd 803d
00000030: 7ce3 d9bc b632 58bd 61f1 833d 4e96 86bd
00000040: e82c 81bd 6c0d a73c 50dd 20bd b8c5 63bd
00000050: 5e74 3fbd b06b db3c 4235 4b3d 9ce2 d0bc
00000060: c09e 89ba 4386 6dbd a225 373d ec72 e0bc
00000070: 54ce 9a3c badf 033d 00d6 dd3b 95b0 923d
00000080: 96be 7c3d 18ff 3cbc c7ed 883d 00b6 16b9
00000090: c65e 13bd 3b33 77bd a38a 4fbd ec1d 853c
000000a0: 1c3f a0bd d983 943d 1560 a43d 7743 a83d
000000b0: c63f 65bd 54d6 9e3c 8822 11bd c28c 133d
000000c0: 80c0 b4bc 5f49 9d3d 60aa 3ebb 3bd9 3bbd
000000d0: 387a 023c 30df 98bc 70f4 85bb f938 923d
000000e0: 1ab2 3a3d affa 84bd 9cb1 cbbc 80ee 16bd
000000f0: 0259 aabd f23e 5b3d d028 8d3b 600c 08bc
00000100: 30ad 91bc 2c18 dc3c d009 af3b d8c9 7abd
00000110: 50be dbbb 6c22 8d3c fd10 a43d d4b6 c53c
00000120: 760b 2d3d 5e46 0e3d a82b 32bd 83d2 4abd
00000130: 22a3 7e3d e0ff 9dbc a5fd a93d fdf9 a53d
00000140: 6369 88bd dc4b 8abd 8cb0 87bc 7ace 213d
00000150: d47a d73c 639c 1bbd 481e 67bd f4de a7bc
00000160: 50fa 9b3b 1096 913c 9cd3 a43c acc8 e0bc
00000170: c0cd a5bd 79cb 8c3d 3875 1abd d209 80bd
00000180: 95d2 863d 1bea a4bd 6088 093b 4e69 2fbd
00000190: 3087 f9bb 17c1 9bbd d41a bc3c 90cf 28bd
000001a0: 9042 90bb 603c 013d f7da a93d 58d8 89bd
000001b0: 38c2 48bc 66e1 cebc 3689 233d c270 80bd
000001c0: a817 2abd c4dd e73c 7328 2fbd 2c0f cabc
000001d0: fe0a 743d f863 75bc 6637 89bd a62a 0dbd
000001e0: a631 34bd e621 a1bd c05f 92bb 0e39 62bd
000001f0: f30a 6bbd 53de 83bd c6ef acbc 6043 543c
00000200: 1320 943d c882 783c 9c4a 89bc 02c1 88bd
00000210: 70c2 ddbb 06f5 75bd b656 7abd d0b8 ee3b
00000220: 47a4 88bd 56de 6b3d 80e5 ecbb 26e0 16bd
00000230: 3f3f 9ebd dcaa 943c 86b1 29bd 20e3 633c
00000240: cdea 05bf 4d19 f13e b380 0c3f 502b 03bf
00000250: b8a9 c1be 3551 e23e 28ae dbbe 4f7d e3be
00000260: 5ef1 c83e e082 1a3f 6617 293f 23cd 1d3f
00000270: 76ad 2c3f 6b09 0c3f 9082 213f e254 233f
00000280: 5e02 163f 42d6 223f 66c8 1e3f f055 2c3f
00000290: 5db7 053f 8a3b 153f a054 293f edfa 243f
000002a0: 64e4 073f e474 173f 9d17 263f 5d05 0f3f
000002b0: 5591 2c3f de79 2e3f 0151 0a3f efa0 043f
000002c0: e3cf 083f 2101 243f bd77 243f ff0b 183f
000002d0: dcf8 2b3e 73bd bd3d 6ac9 cd3e a58c acbc
000002e0: 5bed f7bd 29a9 7d3e b97d b13e db54 ce3e
000002f0: db59 ee3e 7ee9 1b3f 9a7e 193f a644 043f
00000300: 98bd 283f a8ce 283f 7c15 083f 4633 283f
00000310: 9925 1d3f 095a 0a3f 75e0 0e3f 8ec0 143f
00000320: 27a9 103f d908 243f fda3 053f 862c 183f
00000330: e13e 263f 0c50 143f be00 293f 4241 1a3f
00000340: 06c5 253f 1036 0e3f e354 2a3f 00fe 183f
00000350: a64b 173f 9d2d 213f f032 1c3f c525 2a3f
00000360: 004f 92ba 71de 8a3d becc a8bd 40b4 fd3c
00000370: a683 2dbd e0d2 0c3b 3653 313d 49e0 973d
00000380: 433e 97bd ae2e 46bd 32d3 793d c01f d4bb
00000390: 2854 7d3c 78f1 46bc 100c 94bc ae73 91bd
000003a0: aeea 89bd d0eb f3bb 381a 153d 93b7 a03d
000003b0: aeac 9cbd 9c5d 8ebc c6ad 63bd 6fd5 8d3d
000003c0: 0664 0bbd b977 9f3d 70a3 c83c cadd 0e3f
000003d0: 2b74 273f 8b53 1c3f eb4f 2c3f aff4 083f
000003e0: 5300 0e3f 752c 213f be25 223f fe7a 1d3f
000003f0: 5342 87bd b0ba 8ebc 2014 113d 9a10 94bd

bias f4 [32]
-0.020693041 0.6809633 -0.043530427 -0.07745253 -0.05173617 -0.055122517 0.63010234 -0.019252501
-0.6666591 -0.6269952 0.5222126 -0.06089618 -0.01272881 -0.5366225 -0.061180454 0.03725218
-0.53294754 0.00017761439 -0.54705 -0.010567695 -0.5790837 -0.07324683 -0.01985529 -0.6184238
9.831786e-05 -0.6136488 0.567773 -0.0816676 0.6747331 -0.59402746 -0.5288206 -0.07462017
00000000: 7484 a9bc 9c53 2e3f f64c 32bd 6f9f 9ebd
00000010: 4ee9 53bd 26c8 61bd 634e 213f 6cb7 9dbc
00000020: 2caa 2abf c282 20bf baaf 053f 466e 79bd
00000030: 808c 50bc 1860 09bf 5b98 7abd be95 183d
00000040: 406f 08bf 003e 3a39 780b 0cbf 2024 2dbc
00000050: d43e 14bf 6f02 96bd 90a7 a2bc 0651 1ebf
00000060: 0030 ce38 1618 1dbf 9259 113f 5841 a7bd
00000070: 4fbb 2c3f 2f12 18bf c960 07bf 76d2 98bd

weight f4 [64, 32, 3, 3]
-0.0037092827 -0.013672233 -0.03127057 0.0046674944 -0.05450758 -0.049297474 -0.025559269 -0.010105193
-0.05420847 -0.6077286 -0.6525037 -0.5836667 -0.542454 -0.6038063 -0.5586558 -0.60706776
-0.594418 -0.6069125 0.0581897 -0.033920065 0.008259561 -0.013379145 0.04010885 0.040002603
0.022861514 -0.0029343553 0.021235872 0.042803805 0.0048408695 -0.002180852 -0.054749712 0.042440813
-0.027201984 -0.0019460097 -0.05854293 0.01020496 -0.029253755 -0.0006655045 0.048661027 0.0073853023
-0.051772937 -0.00010963902 -0.04794345 0.03243951 0.008304339 0.056779835 -0.029203974 0.04427739
-0.0069863684 -0.009033699 0.04962981 -0.0009956434 0.0500033 -0.031607404 -0.6337567 -0.6356205
-0.6354879 -0.54233545 -0.57029974 -0.64237523 -0.5470503 -0.58022946 -0.57618684 0.035698693
0.0071922652 -0.0013991892 0.029793251 0.044844236 0.039519873 0.05652498 -0.026771095 -0.0028090812
-0.65383786 -0.6059922 -0.5981605 -0.5704834 -0.54091346 -0.5852065 -0.6511594 -0.5674187
-0.59271586 -0.5512422 -0.6374278 -0.61263794 -0.601839 -0.56743854 -0.6387136 -0.5877235
-0.59596574 -0.5538879 -0.5864899 -0.59132004 -0.5766789 -0.60546476 -0.5679389 -0.5894719
-0.5590623 -0.6459617 -0.6226758 -0.008759119 -0.019198418 -0.014256109 0.0031023733 0.0070716403
-0.048204824 0.04525939 -0.026725035 -0.007475693 0.016587678 0.022235055 -0.008694705 -0.044363618
0.019850183 -0.04494963 -0.009801775 0.025253814 -0.039735556 -0.5921035 -0.54666466 -0.61017346
-0.65848875 -0.6247908 -0.5686585 -0.5695702 -0.6535536 -0.6281423 -0.010119207 -0.011855178
0.0561842 0.015836988 0.01259033 0.029033888 -0.046889663 0.007639218 0.0026467182 -0.04319763
0.008147996 -0.0364292 0.026748914 0.00972319 -0.048750915 -0.0011577457 -0.0060122125 -0.0143400505
-0.57005024 -0.5453645 -0.6513565 -0.5731525 -0.6033583 -0.5999847 -0.574871 -0.60920304
-0.59039176 0.022855643 0.017255742 -0.02439043 0.03803971 0.022511203 0.0029499717 0.04513799
-0.053243533 -0.019774571 -0.5891501 -0.6119229 -0.58002806 -0.58339775 -0.5494517 -0.57371706
-0.54579484 -0.6325793 -0.56521755 -0.057819407 0.036208805 0.03828297 -0.0025620013 0.024163779
-0.048140496 -0.05761035 -0.017761856 -0.016704284 -0.54852676 -0.6231846 -0.64273614 -0.6048797
-0.5767666 -0.5609419 -0.56246835 -0.6140141 -0.5857037 -0.052469723 -0.0058918074 0.04531188
0.03000876 -0.05095658 0.010124814 0.019748036 0.014879044 0.04921333 -0.04626166 -0.02569243
0.015629884 0.03457227 0.03259779 0.035540793 -0.05611711 0.029992234 0.03436547 -0.5910616
-0.57632345 -0.61932737 -0.5548613 -0.55119276 -0.5471399 -0.5436195 -0.61117 -0.5607954
-0.0068712793 0.025971685 0.042168606 -0.016431842 0.0019166842 -0.021321297 0.0005890988 -0.023611158
0.021234084 -0.6159622 -0.6054281 -0.64193434 -0.5454078 -0.61691684 -0.6122983 -0.6400426
-0.6229013 -0.5678457 -0.5748314 -0.6173342 -0.60648346 -0.54136884 -0.61427593 -0.60864294
-0.62288755 -0.5598065 -0.6289397 0.007545691 0.058612216 -0.0071116425 -0.057085987 -0.05484127
-0.007832572 0.032863732 -0.047191966 0.020966057 -0.5523696 -0.5748059 -0.5415904 -0.61561036
00000000: 7017 73bb 8001 60bc 9215 00bd c8f1 983b
00000010: 5743 5fbd 26ec 49bd ac61 d1bc 4090 25bc
00000020: b309 5ebd 1a94 1bbf 7c0a 27bf 2e6b 15bf
00000030: 44de 0abf 0d93 1abf 1104 0fbf cb68 1bbf
00000040: c72b 18bf 9e5e 1bbf 5358 6e3d c4ef 0abd
00000050: 1c53 073c 3434 5bbc 2d49 243d c5d9 233d
00000060: 1248 bb3c 504e 40bb daf6 ad3c 0b53 2f3d
00000070: 28a0 9e3b a0ec 0ebb 3c41 60bd 6bd6 2d3d
00000080: b2d6 debc 4011 ffba b6ca 6fbd b432 273c
00000090: 92a5 efbc 4075 2eba c950 473d 6800 f23b
000000a0: dc0f 54bd 00ee e5b8 5a60 44bd 4bdf 043d
000000b0: ec0e 083c f991 683d 2c3d efbc 355c 353d
000000c0: e8ed e4bb 1402 14bc a148 4b3d 4080 82ba
000000d0: 43d0 4c3d c476 01bd e13d 22bf 06b8 22bf
000000e0: 56af 22bf 7fd6 0abf 2aff 11bf b472 24bf
000000f0: 7d0b 0cbf eb89 14bf fb80 13bf cb38 123d
00000100: 18ad eb3b 0065 b7ba fa10 f43c 97ae 373d
00000110: 97df 213d bd86 673d 0e4f dbbc 9018 38bb
00000120: eb61 27bf 4e22 1bbf 0c21 19bf 330b 12bf
00000130: 4e79 0abf 18d0 15bf 62b2 26bf 5a42 11bf
00000140: 3abc 17bf 351e 0dbf 782e 23bf d7d5 1cbf
00000150: 1f12 1abf a743 11bf bc82 23bf 0c75 16bf
00000160: 3691 18bf 99cb 0dbf 3424 16bf c060 17bf
00000170: 3aa1 13bf bdff 1abf 7264 11bf a1e7 16bf
00000180: b51e 0fbf bf5d 25bf ae67 1fbf 6882 0fbc
00000190: 0046 9dbc 7492 69bc 3051 4b3b 38b9 e73b
000001a0: 6c72 45bd e961 393d 76ee dabc a8f6 f4bb
000001b0: e2e2 873c 4a26 b63c 3c74 0ebc a0b6 35bd
000001c0: da9c a23c 1a1d 38bd a097 20bc 16e1 ce3c
000001d0: c0c1 22bd 1894 17bf 37f2 0bbf 5434 1cbf
000001e0: b892 28bf 4af2 1fbf 9a93 11bf 5acf 11bf
000001f0: 4a4f 27bf efcd 20bf 08cb 25bc 383c 42bc
00000200: 6721 663d 92bc 813c ac47 4e3c 7ad8 ed3c
00000210: 600f 40bd 6852 fa3b 9074 2d3b 00f0 30bd
00000220: 2c7f 053c c936 15bd 8a20 db3c 044e 1f3c
00000230: 0aaf 47bd 80bf 97ba 1802 c5bb 88f2 6abc
00000240: d0ee 11bf 029d 0bbf 4dbf 26bf 1fba 12bf
00000250: b175 1abf 9998 19bf bf2a 13bf bbf4 1bbf
00000260: ea23 17bf c23b bb3c ea5b 8d3c 70ce c7bc
00000270: 87cf 1b3d 6a69 b83c 5054 413b 9de2 383d
00000280: e415 5abd 48fe a1bc 8ad2 16bf fba6 1cbf
00000290: b87c 14bf 8e59 15bf dea8 0cbf 1fdf 12bf
000002a0: 36b9 0bbf b8f0 21bf 19b2 10bf 0bd4 6cbd
000002b0: af4f 143d 9bce 1c3d 40e7 27bb 1ef3 c53c
000002c0: f82e 45bd d5f8 6bbd 5081 91bc 6cd7 88bc
000002d0: 406c 0cbf 0789 1fbf 5b8a 24bf 65d9 1abf
000002e0: faa6 13bf e399 0fbf edfd 0fbf 0730 1dbf
000002f0: adf0 15bf 7eea 56bd 1010 c1bb f398 393d
00000300: eed4 f53c d9b7 50bd 8ce2 253c a2c6 a13c
00000310: 3cc7 733c eb93 493d de7c 3dbd ee78 d2bc
00000320: 3e0a 803c a79b 0d3d 4385 053d 3993 113d
00000330: 0edb 65bd 46b2 f53c cfc2 0c3d d04f 17bf
00000340: ef89 13bf 3d8c 1ebf 640b 0ebf f81a 0dbf
00000350: 5c11 0cbf a62a 0bbf a375 1cbf 4a90 0fbf
00000360: 7828 e1bb 92c2 d43c fdb8 2c3d 129c 86bc
00000370: 4039 fb3a 00aa aebc c06d 1a3a 306c c1bc
00000380: 1af3 ad3c b3af 1dbf 56fd 1abf cf55 24bf
00000390: d89f 0bbf 43ee 1dbf 95bf 1cbf d5d9 23bf
000003a0: 7676 1fbf 565e 11bf 2728 13bf 9d09 1ebf
000003b0: 8042 1bbf 2697 0abf 3041 1dbf 06d0 1bbf
000003c0: 8f75 1fbf 7b4f 0fbf 3102 21bf d841 f73b
000003d0: 5d13 703d c808 e9bb ffd2 69bd 3da1 60bd
000003e0: 3054 00bc 1f9c 063d 5d4c 41bd 02c1 ab3c
000003f0: 1868 0dbf 7b26 13bf aba5 0abf a498 1dbf

bias f4 [64]
-0.5764895 -0.05797115 0.6317684 -0.032742903 -0.039180603 0.6433205 -0.59667546 -0.56912124
-0.035345703 0.022443872 -0.5509103 -0.5737823 -0.053910047 -0.61869687 0.5719475 -0.02845029
-0.5955633 0.57104015 -0.57241553 0.63648695 -0.05556222 -0.017764207 0.6123267 -0.04884039
0.57644063 0.6382279 -0.029310457 -0.59436274 -0.055590063 -0.5525092 -0.6352464 0.6218119
-0.058894236 -0.6555863 -0.0022822507 0.6435265 -0.54866093 -0.54693663 -0.62814504 -0.6229332
0.012419838 -0.579413 -0.5487486 -0.5704407 -0.0584454 -0.55139726 0.634789 0.63681227
-0.0040389746 -0.6061573 -0.57965636 0.5548434 -0.54710543 -0.046332352 -0.5686807 -0.0022010691
-0.042606764 0.6404334 0.6312419 -0.05437493 -0.03271053 -0.60214245 0.6586238 0.6441149
00000000: d194 13bf 2873 6dbd 93bb 213f 6c1d 06bd
00000010: d77b 20bd a7b0 243f b9bf 18bf eeb1 11bf
00000020: a8c6 10bd 36dc b73c 7508 0dbf 66e3 12bf
00000030: c8d0 5cbd eb62 1ebf 276b 123f 9510 e9bc
00000040: d676 18bf b02f 123f d389 12bf cff0 223f
00000050: 3695 63bd 3e86 91bc 71c1 1c3f dc0c 48bd
00000060: 9d91 133f e762 233f 7c1c f0bc 2828 18bf
00000070: 68b2 63bd 3e71 0dbf 829f 22bf 112f 1f3f
00000080: 153b 71bd 81d4 27bf d091 15bb 27be 243f
00000090: 0b75 0cbf 0a04 0cbf 1dce 20bf 8d78 1fbf
000000a0: 947c 4b3c 6954 14bf ca7a 0cbf 6708 12bf
000000b0: 7264 6fbd 5f28 0dbf 8881 223f 2106 233f
000000c0: 6059 84bb 202d 1bbf 5c64 14bf 380a 0e3f
000000d0: 1a0f 0cbf fec6 3dbd 0f95 11bf d03f 10bb
000000e0: 6e84 2ebd 71f3 233f 1299 213f 3fb8 5ebd
000000f0: 7afb 05bd 0226 1abf 929b 283f b7e4 243f

weight f4 [64, 64, 3, 3]
0.027948651 0.014130037 -0.03938904 0.028621767 0.019940656 0.028549638 -0.021078765 -0.020526057
0.008584544 -0.036133327 0.0029510893 0.005175639 0.04031675 0.03934561 0.03694382 -0.02571032
-0.010448143 -0.01445125 -0.028109834 -0.024331223 0.0015998334 0.0022832602 0.030788708 -0.004404966
0.02249002 -0.039450746 -0.011548664 0.0008356683 0.02850281 -0.024101024 0.0016478039 0.03706235
-0.010252345 0.028882418 0.025592316 0.025250908 -0.028386911 -0.00038698688 -0.035518415 -0.031160098
0.012872148 0.014433164 -0.008331463 0.03909259 0.007816609 -0.0080627315 0.031402234 0.020315398
-0.018765684 0.0038061626 -0.027242666 -0.02866377 -0.0053397827 -0.005069431 -0.03628678 0.004737016
0.036720525 0.009622756 -0.010140959 0.018003013 0.03878882 -0.01985259 -0.031495884 0.00608645
0.032440778 -0.01639187 -0.03630671 0.034959998 0.001940757 0.0051874854 0.016096879 0.022081617
0.03410435 0.019359138 0.0024299137 -0.020498892 -0.0012974739 -0.035919964 0.036788825 -0.003234718
0.010764223 -0.021506554 -0.0270437 -0.015298974 0.037089933 0.03674726 0.027362768 0.025925737
-0.0113935135 0.032792557 0.0019360669 0.030723665 0.0037399828 -0.019861966 0.008536864 0.017089728
0.0017555207 0.0269298 0.02311654 0.009404659 0.028220382 0.03484462 -0.016100809 0.0034001507
-0.016692918 -0.00085917115 -0.039259516 0.008239135 0.015416574 0.015100937 -0.006630007 -0.02325077
0.02287342 0.0027706586 0.023139495 -0.020555362 -0.0029210001 0.008497551 -0.030315181 0.03986233
0.0033074915 -0.016107589 0.039360765 -0.013197582 0.0075059496 0.035470817 -0.010675784 -0.040937286
0.03894342 -0.03317686 -0.03953178 0.019914344 0.02988829 -0.032014877 -0.01636234 0.029580746
0.027727399 -0.01453664 -0.0033347718 -0.02603153 -0.030276462 0.029654566 -0.03195448 -0.018779477
0.034744453 0.030311454 0.008599177 -0.0019265972 0.038693603 -0.024148166 -0.011984428 -0.014217218
0.006717 0.03701033 0.00034698844 -0.009419229 0.0012192242 0.041379157 0.02071723 -0.03691917
-0.017355528 -0.0039715506 -0.024469813 0.026930723 0.014169481 -0.015583664 -0.018358558 -0.025469542
-0.009147186 -0.026229799 0.020211115 -0.0058779977 0.0047949813 0.0023380257 -0.002976086 -0.0057608783
-0.008705124 -0.030033093 0.024855826 0.040357742 -0.015430298 0.031246785 -0.017051429 0.033277016
-0.020677721 -0.004215494 -0.009125505 0.025747228 0.0254667 0.014088068 0.01909602 0.015307974
0.009693295 -0.03863006 0.0012785159 0.033658374 -0.0033857562 -0.021806573 0.03548279 0.041179586
0.020157713 -0.012199884 0.039412048 0.018804315 -0.031198855 0.004134547 -0.025396666 -0.029707562
-0.019513723 -0.020180862 0.007418696 -0.033023726 -0.010166034 0.019047495 0.03206933 -0.005945634
-0.03847563 0.022176582 -0.040559765 0.013973758 -0.0058495663 0.03305619 -0.034932446 -0.010991171
0.0012034364 -0.039552256 0.022085 -0.03479251 0.022458564 -0.020037865 -0.032571565 -0.020012235
0.022682507 0.005532775 -0.0023122542 0.0074065477 0.0071415193 0.022393014 0.013631586 -0.00018154085
-0.03956602 -0.028820198 -0.035032507 0.011935238 0.02754743 -0.040395923 0.036011133 0.00064125285
0.010826904 -0.013178483 -0.040298965 -0.0045739673 0.032651473 0.03530212 0.021284152 0.03204159
00000000: 92f4 e43c ac81 673c 6756 21bd 3278 ea3c
00000010: 965a a33c eee0 e93c 60ad acbc 4326 a8bc
00000020: 30a6 0c3c 8a00 14bd 1067 413b 6898 a93b
00000030: 2d23 253d dd28 213d 6752 173d 739e d2bc
00000040: b02e 2bbc f0c4 6cbc 9846 e6bc 4652 c7bc
00000050: 80b1 d13a c0a2 153b 9a38 fc3c 8857 90bb
00000060: fe3c b83c 1b97 21bd 9c36 3dbc c010 5b3a
00000070: ba7e e93c 836f c5bc 20fb d73a b1ce 173d
00000080: 74f9 27bc d29a ec3c faa6 d13c feda ce3c
00000090: ab8b e8bc 80e4 cab9 c27b 11bd 7643 ffbc
000000a0: b4e5 523c 1479 6c3c b080 08bc 8d1f 203d
000000b0: 3c11 003c 8c19 04bc a19f 003d 7a6c a63c
000000c0: 7eba 99bc d070 793b 032c dfbc 48d0 eabc
000000d0: 58f9 aebb 781d a6bb 72a1 14bd f838 9b3b
000000e0: 4368 163d c4a8 1d3c 4426 26bc 0e7b 933c
000000f0: 07e1 1e3d e6a1 a2bc d401 01bd d870 c73b
00000100: 9fe0 043d 3e48 86bc 58b6 14bd 3732 0f3d
00000110: 0061 fe3a c8fb a93b 9add 833c 82e4 b43c
00000120: 01b1 0b3d 0e97 9e3c 303f 1f3b 4bed a7bc
00000130: 0010 aaba d020 13bd e1af 163d 90fd 53bb
00000140: 6c5c 303c 832e b0bc c08a ddbc 8ca8 7abc
00000150: 9deb 173d 4b84 163d e227 e03c 3662 d43c
00000160: dcab 3abc 7d51 063d a0c3 fd3a 32b0 fb3c
00000170: 801a 753b 90b5 a2bc 34de 0b3c c2ff 8b3c
00000180: 8019 e63a e29b dc3c e65e bd3c 0016 1a3c
00000190: 6e2e e73c 3bb9 0e3d d8e5 83bc 10d5 5e3b
000001a0: 96bf 88bc 003a 61ba 96ce 20bd 70fd 063c
000001b0: cc95 7c3c ec69 773c 8840 d9bb 6678 bebc
000001c0: 0a61 bb3c f093 353b 0a8f bd3c b863 a8bc
000001d0: 406e 3fbb 5039 0b3c 8b57 f8bc af46 233d
000001e0: 80c2 583b 10f4 83bc c138 213d ac3a 58bc
000001f0: 78f4 f53b d949 113d 7ce9 2ebc dbad 27bd
00000200: 2383 1f3d 76e4 07bd 13ec 21bd 6823 a33c
00000210: 4ad8 f43c 0822 03bd 500a 86bc 5253 f23c
00000220: 9224 e33c 162b 6ebc 308c 5abb 1340 d5bc
00000230: 5806 f8bc 22ee f23c b3e2 02bd 6bd7 99bc
00000240: 3350 0e3d ba4f f83c 90e3 0c3c e085 fcba
00000250: 2f7d 1e3d 60d2 c5bc 565a 44bc 56ef 68bc
00000260: 481a dc3b 2598 173d 00ec b539 1c53 1abc
00000270: 60ce 9f3a 317d 293d 2eb7 a93c 8e38 17bd
00000280: 2e2d 8ebc c823 82bb eb74 c8bc d29d dc3c
00000290: 1c27 683c a052 7fbc b064 96bc 80a5 d0bc
000002a0: 14de 15bc e0df d6bc c891 a53c 389c c0bb
000002b0: 381f 9d3b 9039 193b 700a 43bb c0c5 bcbb
000002c0: f09f 0ebc f607 f6bc 729e cb3c 294e 253d
000002d0: 5ccf 7cbc 42f9 ff3c 70af 8bbc 7b4d 083d
000002e0: 5364 a9bc 2022 8abb 2483 15bc daeb d23c
000002f0: 8a9f d03c a4d1 663c 426f 9c3c 4cce 7a3c
00000300: a0d0 1e3c 8e3a 1ebd e093 a73a 5ddd 093d
00000310: 90e3 5dbb b3a3 b2bc 6756 113d edab 283d
00000320: ca21 a53c 06e2 47bc 876e 213d 820b 9a3c
00000330: be94 ffbc 187b 873b ab0c d0bc 465d f3bc
00000340: 3edb 9fbc 5652 a5bc 8818 f33b e343 07bd
00000350: 708f 26bc 7e09 9c3c 215b 033d 98d3 c2bb
00000360: 9f98 1dbd aaab b53c ff21 26bd 30f2 643c
00000370: b8ad bfbb ed65 073d 5315 0fbd 5014 34bc
00000380: a0bc 9d3a 8c01 22bd 9aeb b43c 9782 0ebd
00000390: 06fb b73c 7326 a4bc c369 05bd b3f0 a3bc
000003a0: aad0 b93c 484c b53b 3089 17bb a0b2 f23b
000003b0: 6803 ea3b 8e71 b73c 0457 5f3c 005c 3eb9
000003c0: fb0f 22bd 5618 ecbc 3f7e 0fbd 048c 433c
000003d0: 26ab e13c 3276 25bd 6980 133d c019 283a
000003e0: 5463 313c 90ea 57bc 8710 25bd 38e1 95bb
000003f0: 8dbd 053d f598 103d 1a5c ae3c 0b3e 033d

bias f4 [64]
-0.0002709739 -0.025593515 -0.5899376 -0.56603956 -0.6057761 -0.6024677 -0.5927907 0.0084183365
-0.026294038 -0.01781859 0.5934675 0.58885723 0.00892188 -0.59248644 -0.60155076 -0.025943419
0.60485315 -0.5685797 0.6098829 -0.005781967 -0.57469624 -0.0058494024 0.6157832 -0.010056999
-0.0008450784 -0.5899556 -0.035731815 0.63965666 -0.014860775 -0.59870404 -0.033412866 -0.03051651
0.6159167 0.6139694 -0.031168085 -0.5674473 0.63963497 -0.03578673 0.5883198 0.59799623
-0.5757995 0.017554294 -0.011545464 -0.56020457 -0.5920971 0.62924564 0.59191495 -0.61490864
0.6341183 -0.6158871 -0.6080501 -0.022862624 0.037494782 0.5777223 0.6179397 0.5984181
-0.6252544 -0.022461787 0.62801015 -0.5946486 -0.035827182 -0.58589774 -0.6117055 0.039854486
00000000: 8011 8eb9 7ea9 d1bc 2706 17bf f8e7 10bf
00000010: 2414 1bbf 533b 1abf 22c1 17bf 10ed 093c
00000020: 9866 d7bc 4bf8 91bc 7ced 173f 59bf 163f
00000030: 142d 123c 31ad 17bf 3bff 19bf 4b87 d4bc
00000040: a8d7 1a3f 708e 11bf 4921 1c3f a876 bdbb
00000050: 4b1f 13bf 58ac bfbb f8a3 1d3f 1cc6 24bc
00000060: 4088 5dba 5507 17bf 865b 12bd 8ac0 233f
00000070: 9c7a 73bc ab44 19bf eedb 08bd c3fd f9bc
00000080: b8ac 1d3f 192d 1d3f 3654 ffbc 3a44 11bf
00000090: 1ebf 233f 1b95 12bd 209c 163f 4816 193f
000000a0: 9967 13bf 06ce 8f3c 3029 3dbc 9169 0fbf
000000b0: ad93 17bf 3e16 213f bd87 173f a76a 1dbf
000000c0: 9455 223f c7aa 1dbf 2ca9 1bbf 664a bbbc
000000d0: 2194 193d 9ce5 133f 4c31 1e3f ee31 193f
000000e0: ac10 20bf c801 b8bc 46c5 203f e43a 18bf
000000f0: 86bf 12bd 65fd 15bf bb98 1cbf 753e 233d

weight f4 [128, 1024]
-0.004691381 0.015804354 -0.017815921 0.009839147 0.021517709 -0.01254715 0.024121597 0.030812427
0.018322833 -0.0056453757 0.0011806712 -0.019701246 -0.008473262 -0.008034829 0.02925773 0.008951727
-0.003558971 0.020645142 -0.022497356 0.002979681 -0.015549716 -0.025918283 -0.016655575 0.024272576
0.012027729 0.021390341 -0.009553045 0.029968388 0.0036689043 0.0075908713 0.010532405 0.020460784
0.6284069 0.62058836 0.60638183 0.5993661 0.5955922 0.59538096 0.58176655 0.5982407
0.57207245 0.62311256 0.61406344 0.61764604 0.6260125 0.59360844 0.6287298 0.5763733
0.5884017 0.61815625 0.6057449 0.61092997 0.58668554 0.5994841 0.6263977 0.57305366
0.613574 0.5981881 0.6126564 0.6011442 0.6080264 0.57702357 0.58032346 0.58076155
0.57837504 0.61372495 0.60587895 0.6275764 0.5750794 0.6194249 0.6285321 0.6088819
0.62882507 0.60095054 0.62612116 0.5699478 0.62383395 0.62179154 0.5975626 0.61022365
0.6116254 0.60824364 0.5933369 0.5941014 0.6312127 0.62030643 0.6127905 0.59979284
0.5692003 0.5731911 0.5883601 0.57724 0.5918979 0.6086241 0.6235925 0.60437346
0.59216636 0.5847651 0.6012391 0.57657737 0.61421084 0.5788132 0.6173179 0.60133266
0.5949511 0.6006664 0.5765107 0.5920312 0.5806304 0.57562643 0.60006493 0.62909544
-0.015931476 0.02265476 0.02314094 -0.014243424 -0.0019332916 -0.022150785 0.019508112 -0.006243434
0.00010097027 -0.019815173 -0.027155168 -0.026656684 0.0069111846 -0.0032093003 0.013867736 -0.011385258
-0.0013137646 0.0022572465 0.009447113 0.011838339 0.020471789 -0.00862119 0.0017889142 0.0011397302
0.023092106 0.011132896 -0.022488553 -0.0030094907 -0.01594162 0.026523188 0.014928009 -0.021100007
-0.01618424 0.001546178 -0.002183102 -0.013533108 0.02122306 0.0070920065 0.008887861 0.004395686
0.010598242 0.018185519 -0.0087143965 0.003315311 0.013406325 0.010726593 0.02706118 -0.027087778
0.5998848 0.5777719 0.57977223 0.6045866 0.61558527 0.60108984 0.60263866 0.61517125
0.58273864 0.6187217 0.6083733 0.6275052 0.61895454 0.5744959 0.61509144 0.62401855
0.59310997 0.5775647 0.5839083 0.6143025 0.5813469 0.57218707 0.569126 0.5786598
0.5940702 0.6178223 0.61646545 0.59613574 0.5849067 0.59576946 0.62049687 0.61904395
0.025995448 0.003944803 -0.013499942 -0.00944664 0.031089462 -0.00035732985 0.021879412 0.016124934
0.028321564 0.017153043 0.010772459 0.0030904189 0.013153363 -0.0030762628 0.0234792 -0.001437664
0.6049512 0.6225351 0.62209123 0.60066044 0.5991365 0.5966238 0.6027329 0.5705655
0.6171949 0.60662806 0.59932923 0.6042846 0.5991993 0.6306292 0.6165327 0.576365
0.6027812 0.5915256 0.6281851 0.61696655 0.6243845 0.56925696 0.5847381 0.62247217
0.58031535 0.59585893 0.5686769 0.60318506 0.59052044 0.62775767 0.5933999 0.6280161
-0.0040922537 -0.016019728 0.016287249 -0.021894794 0.019519713 -0.0017681308 -0.00023053214 0.014429841
0.024127495 0.028866839 -0.013934817 -0.0036806911 0.013236895 -0.0020294525 0.015005175 0.028495826
00000000: 28ba 99bb 2278 813c b2f2 91bc 6034 213c
00000010: e845 b03c 9092 4dbc a89a c53c 586a fc3c
00000020: c419 963c d8fc b8bb c0c0 9a3a 8264 a1bc
00000030: 70d3 0abc 84a4 03bc e8ad ef3c 44aa 123c
00000040: a03d 69bb 0020 a93c 604c b8bc c046 433b
00000050: 3cc4 7ebc 9452 d4bc 4671 88bc 48d7 c63c
00000060: f40f 453c cc3a af3c 6084 1cbc 4480 f53c
00000070: 0072 703b d8bc f83b 1c90 2c3c 609d a73c
00000080: 46df 203f e1de 1e3f d73b 1b3f 0f70 193f
00000090: bb78 183f e36a 183f a7ee 143f 4d26 193f
000000a0: 5773 123f 4e84 1f3f 4333 1d3f 0d1e 1e3f
000000b0: 5b42 203f b9f6 173f 70f4 203f 338d 133f
000000c0: 7ea1 163f 7d3f 1e3f 1912 1b3f e865 1c3f
000000d0: 0631 163f ca77 193f 9a5b 203f a5b3 123f
000000e0: 3013 1d3f db22 193f 0dd7 1c3f 96e4 193f
000000f0: 9ea7 1b3f d1b7 133f 1490 143f caac 143f
00000100: 6310 143f 141d 1d3f e21a 1b3f d9a8 203f
00000110: 6738 133f a192 1e3f 7be7 203f afdf 1b3f
00000120: aefa 203f e5d7 193f 7a49 203f 19e8 113f
00000130: 95b3 1f3f bb2d 1f3f ddf9 183f 9e37 1c3f
00000140: 7b93 1c3f dbb5 1b3f ede4 173f 0817 183f
00000150: 2897 213f 67cc 1e3f d7df 1c3f 068c 193f
00000160: 1cb7 113f a7bc 123f c49e 163f 00c6 133f
00000170: 9f86 173f cace 1b3f c2a3 1f3f 38b8 1a3f
00000180: 3798 173f 2ab3 153f ceea 193f 939a 133f
00000190: ec3c 1d3f 1a2d 143f 8c08 1e3f f0f0 193f
000001a0: b74e 183f 46c5 193f 3596 133f 5b8f 173f
000001b0: 32a4 143f 415c 133f db9d 193f 660c 213f
000001c0: ba82 82bc 7a96 b93c 1292 bd3c 405d 69bc
000001d0: 8066 fdba 9075 b5bc 7acf 9f3c b895 ccbb
000001e0: 00c0 d338 6e53 a2bc 8474 debc 1e5f dabc
000001f0: 3877 e23b 2053 52bb 8035 633c 3c89 3abc
00000200: a032 acba 50ee 133b 10c8 1a3c 98f5 413c
00000210: 74b4 a73c e43f 0dbc 007a ea3a 0063 953a
00000220: a82b bd3c c066 363c ea39 b8bc e03a 45bb
00000230: 0098 82bc 2847 d93c 9c94 743c ecd9 acbc
00000240: d094 84bc 20a9 ca3a 6012 0fbb f8b9 5dbc
00000250: fcdb ad3c 1064 e83b 649e 113c b009 903b
00000260: 40a4 2d3c ccf9 943c d4c6 0ebc b045 593b
00000270: 34a6 5b3c 98be 2f3c 68af dd3c 30e7 ddbc
00000280: 0d92 193f dce8 133f f46b 143f 30c6 1a3f
00000290: ff96 1d3f 06e1 193f 8746 1a3f dd7b 1d3f
000002a0: 5c2e 153f 8c64 1e3f 5abe 1b3f 2ea4 203f
000002b0: ce73 1e3f 2a12 133f a276 1d3f aebf 1f3f
000002c0: 0ed6 173f 48db 133f 047b 153f ee42 1d3f
000002d0: 27d3 143f da7a 123f 3eb2 113f 0c23 143f
000002e0: fc14 183f 9a29 1e3f aed0 1d3f 5a9c 183f
000002f0: 72bc 153f 5984 183f e2d8 1e3f aa79 1e3f
00000300: 68f4 d43c 6843 813b dc2e 5dbc 14c6 1abc
00000310: 54af fe3c 0058 bbb9 743c b33c 7018 843c
00000320: a002 e83c 8a84 8c3c f87e 303c a088 4a3b
00000330: 3481 573c 209b 49bb 7457 c03c 0070 bcba
00000340: 15de 1a3f 765e 1f3f 5f41 1f3f e2c4 193f
00000350: 0261 193f 56bc 183f b44c 1a3f 9510 123f
00000360: 7c00 1e3f fa4b 1b3f a46d 193f 65b2 1a3f
00000370: 2065 193f ea70 213f 16d5 1d3f a88c 133f
00000380: de4f 1a3f 396e 173f bdd0 203f 85f1 1d3f
00000390: aad7 1f3f d3ba 113f 65b1 153f 565a 1f3f
000003a0: 8c8f 143f 368a 183f cf94 113f 566a 1a3f
000003b0: 592c 173f bab4 203f 0ee9 173f aac5 203f
000003c0: 5018 86bb ce3b 83bc d66c 853c b65c b3bc
000003d0: cee7 9f3c a0c0 e7ba 00bb 71b9 246b 6c3c
000003e0: 06a7 c53c 267a ec3c dc4e 64bc c037 71bb
000003f0: 90df 583c 9000 05bb 44d8 753c 1470 e93c

bias f4 [128]
0.6039645 -0.0073636808 -0.0057257637 -0.018397897 -0.57155854 -0.57166755 0.6087559 -0.019679163
0.59102076 0.63112223 0.6072978 -0.021514453 -0.012868207 -0.010391921 0.6250096 -0.6034084
0.017367426 -0.02538145 -0.02784082 -0.008040089 -0.008372724 -0.008573305 -0.018681154 0.007911958
-0.030888751 -0.030371014 0.6179904 0.6299495 -0.021542527 0.0100771 -0.017715808 0.6144942
-0.57106215 0.6124187 -0.026805684 -0.015860744 -0.011103429 -0.0016790032 -0.01487726 -0.023586538
-0.029741779 0.6005844 -0.02599619 -0.018954411 -0.015158828 -0.60597956 -0.57021016 -0.0022763833
0.620173 -0.02003977 0.6224936 -0.029789113 0.59613967 -0.58484197 -0.005287092 0.616817
-0.016028605 0.6105055 0.60743415 -0.57812107 -0.008623872 -0.0063043945 -0.5750906 0.606283
-0.029626012 -0.60089767 -0.019050356 0.63152385 0.60162777 -0.015085358 -0.5710954 -0.58757764
-0.5932741 -0.0037869327 -0.5938164 -0.5803917 -0.5860816 0.6190884 0.611251 -0.030856553
0.61646545 -0.02091759 -0.02630702 -0.60642916 0.59269804 -0.5973655 -0.00013070926 -0.007385738
-0.024429146 0.6048891 -0.56935275 -0.6104542 -0.5999856 -0.60067576 0.61002547 -0.01889835
-0.01347832 0.6056065 0.62140775 -0.029298939 -0.01919039 -0.58208346 -0.028322425 -0.57811725
-0.5752139 -0.00860928 -0.60833246 0.0008575767 -0.6116285 -0.6060952 -0.5735168 -0.0046012104
-0.0012611188 -0.012578584 -0.005563002 0.6120227 -0.5865443 -0.59161437 -0.015794452 -0.594344
0.59758663 0.5975841 -0.5780302 -0.021329872 0.6038508 0.6184152 -0.0034554414 -0.016583763
00000000: 6b9d 1a3f 084b f1bb 309f bbbb 30b7 96bc
00000010: a951 12bf ce58 12bf 6dd7 1b3f 3236 a1bc
00000020: 234d 173f 3a91 213f de77 1b3f 143f b0bc
00000030: 2cd5 52bc e042 2abc a100 203f f978 1abf
00000040: 2246 8e3c c2ec cfbc 6e12 e4bc 94ba 03bc
00000050: c02d 09bc 0c77 0cbc 3809 99bc 28a1 013c
00000060: 680a fdbc a2cc f8bc 9e34 1e3f 5f44 213f
00000070: f479 b0bc 6c1a 253c be20 91bc 7e4f 1d3f
00000080: 2131 12bf 79c7 1c3f 9897 dbbc 64ee 81bc
00000090: 28eb 35bc 0012 dcba c0bf 73bc 8e38 c1bc
000000a0: 08a5 f3bc e6bf 193f f6f5 d4bc 4846 9bbc
000000b0: bc5c 78bc 7a21 1bbf 4bf9 11bf 602f 15bb
000000c0: a8c3 1e3f 722a a4bc be5b 1f3f 4c08 f4bc
000000d0: 9c9c 183f 34b8 15bf 583f adbb b8e7 1d3f
000000e0: 6c4e 83bc 174a 1c3f ce80 1b3f beff 13bf
000000f0: 244b 0dbc 1895 cebb 2339 13bf 5d35 1b3f
00000100: 40b2 f2bc 6ed4 19bf 7e0f 9cbc 8cab 213f
00000110: 4704 1a3f 9428 77bc 4f33 12bf 7d6b 16bf
00000120: d0e0 17bf 302e 78bb 5a04 18bf 8d94 14bf
00000130: 7209 16bf 947c 1e3f f27a 1c3f e2c6 fcbc
00000140: aed0 1d3f 5e5b abbc d281 d7bc f13e 1bbf
00000150: 0fbb 173f f2ec 18bf 000f 09b9 1004 f2bb
00000160: a21f c8bc 03da 1a3f 1ac1 11bf ba46 1cbf
00000170: a898 19bf e3c5 19bf a12a 1c3f b6d0 9abc
00000180: 2cd4 5cbc 0709 1b3f 9414 1f3f 5404 f0bc
00000190: 2a35 9dbc 6c03 15bf 6e04 e8bc 7eff 13bf
000001a0: 3841 13bf f00d 0dbc adbb 1bbf 00cf 603a
000001b0: af93 1cbf 0e29 1bbf ffd1 12bf c0c5 96bb
000001c0: 204c a5ba 6816 4ebc d849 b6bb 85ad 1c3f
000001d0: c427 16bf 0a74 17bf 5e63 81bc ee26 18bf
000001e0: 70fb 183f 46fb 183f caf9 13bf fcbb aebc
000001f0: f795 1a3f 7550 1e3f b074 62bb acda 87bc
