Output/ant_bee_best_score0.301.pt (torch, 802339 bytes, 21 tensors)

weight f4 [6, 3, 3, 3]
00000000: b369 24bf 1a4d 1bbf 0f97 1dbf d278 01bf
00000010: ae94 d0be c376 2dbf 0fd9 2fbf 3d24 29bf
00000020: 38d0 fdbe 3bfc 20bf a54c 10bf 290b 1ebf
00000030: e818 06bf aeea e2be f70d 10bf f5cc 1cbf
00000040: 743d 18bf 0b8c 32bf 38c2 48bf a676 19bf
00000050: 328b d7be 90a7 06bf b9f2 e7be 1320 46bf
00000060: 9be0 07bf 6a1a f2be dd21 f2be c97c 1cbf
00000070: 145b d1be 292e ecbe 8ca0 3fbf fb21 0fbf
00000080: b4b3 48bf 30e5 01bf 52fe 30bf e0c5 2dbf
00000090: 8b48 22bf 0363 e3be de37 01bf 0a19 2bbf
000000a0: 1b20 3abf d003 41bf b2ec 45bf eeee ddbe
000000b0: 484a e3be ccbd ecbe 535c e3be f717 41bf
000000c0: 19a6 05bf b817 09bf e856 0fbf 6075 15bf
000000d0: b396 d1be 32a6 0fbf dbfa 293f 9a74 1c3f
000000e0: 1441 193f 9d1b f53e a1dc f03e e437 d63e
000000f0: 7ab6 253f 4ca4 dc3e 1f27 4a3f 514c 253f
00000100: 0ad7 133f 4c95 d73e f1b3 093f 0195 3e3f
00000110: 0884 463f 05df 0c3f d3fb 203f f3de 2d3f
00000120: f888 343f f572 253f 6da6 2c3f 2349 493f
00000130: a2aa 353f 2ecc e33e 59bd 3a3f 57a8 f53e
00000140: ec5d 1b3f 7f0a 033f bd2b 443f 2e81 e43e
00000150: 731f 2c3f f80a 293f a15b 463f 681b 3b3f
00000160: d8b5 123f 9079 303f c128 213f 6b5a 0d3f
00000170: 4bd3 e73e ccb9 013f ade1 433f 2acd 2b3f
00000180: 6bb0 0f3f c3d6 143f e778 403f abd6 dc3e
00000190: ac26 0c3f ab3f 073f 8ab6 483f 6b2c 383f
000001a0: b07f 083f 3c59 1d3f 2e2c 2c3f e1c1 143f
000001b0: 463e 473f ef97 413f 744d 0f3f 936e ff3e
000001c0: b9a4 293f ce36 293f b001 2a3f 5fd5 0e3f
000001d0: 5bc3 d13e bcd7 463f 5e68 243f 1191 283f
000001e0: 7fe8 fe3e d344 f43e 75bc 283f 046f 293f
000001f0: e523 293f 0f0e 1b3f dba4 183f db37 453f
00000200: e81f 0e3f b57f 053f 7310 483f b116 d93e
00000210: 3b7d ff3e 9abc 273f d0af f83e eb5b 0c3f
00000220: 5ce5 fd3e d11d f13e bd94 d73e b035 dd3e
00000230: dbcd 3f3f 9f5d 373f 1f36 1a3f b6ae 353f
00000240: b0bd 293f 0042 433f a736 d43e 6e8a f43e
00000250: f228 353f 94ff 473f aeb3 1c3f 4544 403f
00000260: 5252 f83e 57d7 053f f8d3 1a3f 7e5e 003f
00000270: 6405 1b3f b904 0c3f 1a5e 393f cfa4 153f
00000280: 17b3 463f 7c0e 263f
-0.64223784 -0.6066452 -0.6155862 -0.5057498 -0.40738434 -0.6775934 -0.6869058 -0.6607092
-0.4957292 -0.62884873 -0.5636695 -0.6173578 -0.52381754 -0.4431967 -0.5627131 -0.6125024
-0.5946877 -0.6974494 -0.78421354 -0.5994667 -0.42098385 -0.5259943 -0.4530237 -0.7739269
-0.53077096 -0.47285777 -0.4729146 -0.6112791 -0.408898 -0.46128967 -0.7485435 -0.55911225
-0.78399205 -0.5074034 -0.6913806 -0.6788006 -0.6339194 -0.44411477 -0.5047587 -0.6683508
-0.7270524 -0.7539644 -0.77314293 -0.4334635 -0.4439261 -0.46238554 -0.44406375 -0.7542719
-0.5220657 -0.53551817 -0.55991983 -0.58382225 -0.40935287 -0.5611297 0.663984 0.6111542
0.59864926 0.4787263 0.47043326 0.41839516 0.6473156 0.430941 0.78965944 0.64569575
0.5775 0.42106092 0.53790194 0.7444611 0.77545214 0.550278 0.62884253 0.6791832
0.705215 0.64628536 0.67441446 0.7862722 0.7096349 0.44491714 0.7294517 0.47979996
0.6069019 0.5118789 0.7662924 0.44629806 0.6723549 0.6603236 0.77483565 0.73088694
0.5730872 0.6893549 0.6295281 0.5521609 0.4527839 0.5067413 0.7651623 0.6710993
0.5612857 0.581402 0.7518448 0.4313253 0.5474651 0.52831525 0.7840353 0.71942776
0.53319836 0.61464286 0.6725491 0.58108336 0.77829397 0.7562246 0.5597756 0.4988905
0.6626697 0.6609925 0.66408825 0.5579433 0.40969357 0.77672935 0.6422175 0.65846354
0.49786755 0.4770876 0.6591256 0.6618502 0.66070396 0.60568327 0.5962655 0.77038354
0.55517435 0.5214799 0.781501 0.42400125 0.4990023 0.6552216 0.48571634 0.54827756
0.4958905 0.4709306 0.42105666 0.43205023 0.74923486 0.7162723 0.6023883 0.7096971
0.66305065 0.76272583 0.41447946 0.47761863 0.707656 0.78124356 0.6121167 0.7510417
0.48500305 0.5228171 0.6047969 0.50144184 0.605551 0.54694706 0.7240921 0.584546
0.7761702 0.6486585

bias f4 [6]
00000000: be36 35bf a7e7 48bf b852 273f 4f63 323f
00000010: 2278 163f ff5f 1a3f
-0.70786655 -0.78478473 0.65360594 0.6968278 0.5877706 0.6030273

weight f4 [8, 6, 3, 3]
00000000: 8126 21bf de92 14bf c830 fabe b9d4 f7be
00000010: 175f 0bbf e1c3 ecbe fcd1 00bf 04e8 13bf
00000020: 2379 fbbe 076f 32bf feea 1ebf f46d 34bf
00000030: cfc0 e7be 7985 fcbe 913f f9be a52b 06bf
00000040: 7749 2fbf b40f 36bf f307 18bf 7b21 27bf
00000050: bf44 3bbf 4ab8 1bbf 2d27 19bf 2075 09bf
00000060: 45fa f4be c387 33bf 1148 22bf fe98 38bf
00000070: da74 1cbf da9b 22bf b511 07bf bc27 06bf
00000080: 6c19 26bf 68c7 26bf 75d4 1dbf 35fb 2fbf
00000090: 4c39 0fbf 66c8 f0be 3d0e febe e287 d3bd
000000a0: 9f45 35bf ae65 01bf d31a 21bf c0aa 35bf
000000b0: 01f3 2dbf 739c 0fbf 0ad1 0cbf 0435 36bf
000000c0: fe1e 16bf faa8 37bf 0bd3 2cbf 7534 13bf
000000d0: b4fc 21bf b116 0a3f 6c6f 0dbf d99a 21bf
000000e0: 0654 f2be 4fe1 20bf a502 00bf 03dc 31bf
000000f0: e649 2bbf d297 fabe a505 12bf be0d 0abf
00000100: 23b1 0cbf 7c6a 16bf b602 14bf aca8 0fbf
00000110: 228e 19bf e3f9 2dbf f792 1abf 23c4 3bbf
00000120: a6ca 36bf 92f5 01bf 2d87 24bf b392 2dbf
00000130: 2cd1 25bf 0b71 15bf ab8d 26bf b5b4 26bf
00000140: 2d84 06bf 774a 3bbf 33be 0dbf da4e 0ebf
00000150: 7df9 0fbf 1efe 2cbf e4a7 21bf 01e7 29bf
00000160: 79df 07bf 70a2 38bf 6072 12bf c4c3 1cbf
00000170: 0252 0abf be21 1cbf 4816 08bf 5084 19bf
00000180: beaf 27bf c09f 3bbf 0e7e f4be 17c8 0bbf
00000190: 5b86 39bf 3805 30bf a5c2 08bf 8472 f5be
000001a0: 7960 fbbe fc4c 01bf 08a1 12bf 6b5c 16bf
000001b0: 143e 233d 40f6 04bd 20a0 afbe c65a 9fbd
000001c0: b62c 24be 969f eebe 0009 30ba f040 0bbd
000001d0: 0224 d1be 18eb f63c b8f1 b53d 62ca f5be
000001e0: e42c f2bc 947e eebd 25bf ddbe 065f 8abd
000001f0: e0d9 433c 9aaf e8be b167 5abe e726 c5be
00000200: 7b64 cdbe 1dfa c3bd 35b6 fcbd a399 91be
00000210: 8ad2 c3be d0cb babe df10 75be 0c79 d4be
00000220: 4432 d8be 7967 02bf 117f a3be 77b2 d7be
00000230: e13e 09bf 4a68 bebe c9f5 90be ef29 c6be
00000240: 3348 41be d7a1 bdbe 70d9 89be f891 09be
00000250: 4a94 f1bd cc6d c4be 2c1b 40be 5393 50be
00000260: 8968 92be b444 18be f406 a8be 3952 b0be
00000270: 6161 2fbe cc01 91be 522b dcbe b2f7 81be
00000280: 2ee0 eebe 5ea1 c7be fd36 f23e 63d0 353f
00000290: 245d ea3e 845a 033f c752 3a3f 18f2 033f
000002a0: 7c09 0e3f 8fda 263f 1bce 033f 42c9 063f
000002b0: 7bea ecbe 2e0e 08bf 0e6a ed3e b2a8 e43e
000002c0: 7c2b 08bf 19bb f53e 2a63 0a3f 426a cb3e
000002d0: d7ae ff3e 8237 0e3f abc2 0d3f 6ccc 3a3f
000002e0: abf7 ec3e f352 243f 83a9 2f3f e0e3 0a3f
000002f0: 64d6 353f 584e 363f 9e82 383f d1bd 163f
00000300: 40c9 243f 4aa5 143f b329 0e3f d790 3b3f
00000310: 52ec f83e 5154 0d3f 55e0 1d3f 3c7e fd3e
00000320: ce5e 0d3f 35e2 023f ccfc 2b3f 37ea 343f
00000330: cade fe3e 2f20 1e3f 6aa0 393f ee51 2e3f
00000340: 78f8 0f3f 1a5e 0e3f bf2b 013f f15c 143f
00000350: 5260 ed3e d4e2 223f 2a89 333f 6f46 053f
00000360: baf9 2ebf 4ed0 13bf 142f 88bd e98b 15bf
00000370: dc28 e1bd cee9 80bd 0ece e4bd fa2f ac3d
00000380: 199a bcbd 90d7 e8be 3e0d d7be d104 933d
00000390: f5b5 e8be 9222 8cbe a063 033d 359e fdbe
000003a0: ca81 edbd 8f7c 83bd 5515 0abf 24ca 16bf
000003b0: a084 fbbe b872 10bf f700 e4be 416d 22bf
000003c0: bb16 01bf c27e 30bf 4ed2 0cbf d4c4 21bf
000003d0: cdcf 14bf 2d18 08bf e277 33bf 0ec2 14bf
000003e0: 854a 32bf d481 08bf 966c 2cbf 14fe 02bf
000003f0: 05a9 1abf 1cd4 26bf 8608 e0be a1e4 0fbf
-0.6294938 -0.580366 -0.48865342 -0.48404482 -0.5444197 -0.46243194 -0.5032041 -0.577759
-0.49115857 -0.69700664 -0.6207732 -0.70480275 -0.4526429 -0.49320582 -0.4868131 -0.52410346
-0.68471473 -0.7111771 -0.5938713 -0.6528546 -0.73151773 -0.6082808 -0.598254 -0.53694344
-0.4784719 -0.7012903 -0.63391215 -0.7210845 -0.611158 -0.6351906 -0.52761394 -0.5240438
-0.6488254 -0.6514802 -0.6165231 -0.68742687 -0.55946803 -0.47027892 -0.49620238 -0.10328652
-0.7080936 -0.50545776 -0.62931556 -0.7096367 -0.6794892 -0.560981 -0.5500647 -0.71174645
-0.5864104 -0.7174221 -0.67509526 -0.5750192 -0.6327622 0.53940874 -0.5524814 -0.63126904
-0.4732973 -0.62843794 -0.50004035 -0.69476336 -0.66909635 -0.48943955 -0.5703986 -0.5392722
-0.5495779 -0.5875623 -0.57816637 -0.5611675 -0.599825 -0.6795942 -0.603805 -0.73346156
-0.71402967 -0.50765336 -0.6426876 -0.6780197 -0.64772296 -0.58375615 -0.6505992 -0.6511949
-0.52545434 -0.731605 -0.55368346 -0.5558907 -0.56240064 -0.6757525 -0.63146806 -0.6636811
-0.5307537 -0.7212286 -0.5720577 -0.61236215 -0.54031384 -0.60988986 -0.53159 -0.5996752
-0.65502536 -0.73290634 -0.47752422 -0.5460219 -0.72470635 -0.68757963 -0.53422004 -0.4793893
-0.4909704 -0.50508094 -0.57276964 -0.5873477 0.039854124 -0.032461405 -0.34301853 -0.077809855
-0.16032681 -0.4660613 -0.00067152083 -0.033997476 -0.40847784 0.030141398 0.08883995 -0.48005968
-0.029562421 -0.116452366 -0.43309894 -0.067564055 0.011953801 -0.45446473 -0.21328618 -0.38506243
-0.40115723 -0.0956919 -0.12339441 -0.28437528 -0.38246566 -0.36483622 -0.23932217 -0.414986
-0.4222585 -0.50939137 -0.3193288 -0.42128345 -0.5361157 -0.3718894 -0.2831252 -0.38703868
-0.18875198 -0.37037537 -0.26923704 -0.13434589 -0.11795862 -0.38365018 -0.18760365 -0.203687
-0.2859538 -0.14869958 -0.32817805 -0.3443773 -0.17126991 -0.28321683 -0.430018 -0.2538429
-0.4665541 -0.389903 0.47307578 0.710211 0.45774186 0.5130999 0.7278256 0.5154128
0.5548322 0.65177244 0.51486367 0.52650845 -0.46272644 -0.53146636 0.46369976 0.44659954
-0.5319135 0.47994307 0.5405756 0.39729506 0.4993808 0.5555345 0.55375165 0.72968173
0.46282706 0.6418907 0.6861803 0.5425396 0.7103026 0.71213293 0.72074306 0.58883387
0.64369583 0.5806471 0.5553238 0.73267883 0.48617798 0.5520678 0.6167043 0.49510372
0.55222785 0.51126415 0.6718261 0.70669883 0.4977935 0.6176786 0.725104 0.68093765
0.5623851 0.5561234 0.50457376 0.5795432 0.4636255 0.6362736 0.7013117 0.520606
-0.683498 -0.5773972 -0.066496044 -0.5841661 -0.109941214 -0.06294595 -0.11172114 0.08407588
-0.09209079 -0.4547696 -0.4200229 0.07178653 -0.45451322 -0.27370125 0.03207743 -0.49534765
-0.11597021 -0.06420242 -0.539388 -0.5890219 -0.49124622 -0.56425047 -0.44531986 -0.6344796
-0.5042531 -0.6894342 -0.550084 -0.6319096 -0.5812958 -0.5316189 -0.701048 -0.58108604
-0.6964496 -0.533231 -0.6735319 -0.5116894 -0.60414153 -0.65167403 -0.43756503 -0.56208235

bias f4 [8]
00000000: 4fa7 05bf 6f75 07bf 26f8 1dbf 8edc 0a3f
00000010: 283b 16bf 268e 233f f62d 243f e573 f1be
-0.5220842 -0.52913564 -0.6170677 0.5424279 -0.58684015 0.63888776 0.6413263 -0.47158733

weight f4 [16, 8, 3, 3]
00000000: f18c 05bf 6d9e fdbe 207b 0bbf c3de 31bf
00000010: 71d7 08bf 2e0e 1cbf 0e60 03bf f86e 03bf
00000020: 23a9 26bf f108 33bf 6463 29bf e919 17bf
00000030: 86f7 21bf a13d 0cbf 1d8c 21bf 6ac6 04bf
00000040: dffa 17bf 0ca1 04bf 218d 5a3d c930 cdbd
00000050: b046 03bd 5f19 8d3d 244c 8ebd 364a 263d
00000060: 0632 c1bd 5173 923d 2e07 693d d772 febe
00000070: 54eb 0dbf 0cb4 12bf 01d5 0abf 3f1f efbe
00000080: 1bb9 fb3e 81c4 0bbf 2473 0cbf 6556 1abf
00000090: 2ce5 58be 11f4 5abe a31b c43e b9d9 d13d
000000a0: 6909 0fbe 86db 91be ac3f 863c 01f8 3e3e
000000b0: 3891 7a3e 9536 b8be 0b0e 07bf 3704 e9be
000000c0: a7c2 fdbe de50 acbe ec2b cbbe 97d1 e6be
000000d0: 27c6 fdbe 9d0d e7be 7659 28bf a113 1dbf
000000e0: 1716 28bf 2491 30bf 5ab9 1ebf 33fb 22bf
000000f0: 655a f7be 0aa3 ffbe 8361 22bf 9aa7 1fbf
00000100: bec2 2fbf ff97 1dbf a074 13bf 0f2d 1dbf
00000110: 783d 36bf e4cf 32bf e2f4 17bf 778d 0fbf
00000120: 61e3 09bf fc16 23bf 7c43 01bf bd9f cbbd
00000130: b6c0 d8be d0e5 12bf ef8f 28bf 3667 20bf
00000140: b885 1ebf d990 01bf d597 20bf c11a 00bf
00000150: 4843 1dbf eb49 2dbf e3b1 05bf 2e30 f9be
00000160: 7ffe 1bbf b619 1cbf dcbb d43c 4b06 ee3d
00000170: ae3b 3a3d 4ca2 893c 68e6 323c b4cd b1bc
00000180: 3316 bb3d 085f b1bc 0895 48bd 2f95 01bf
00000190: c06e fbbe cbee 11bf 5e5b 8fbd 5a87 aebe
000001a0: d33f 043f e698 abbe 3a75 f4be 221c ec3e
000001b0: 2c1b da3c 60db 48bd 8fb8 9a3d 42c0 0b3d
000001c0: d272 27bd b416 be3c 56b4 0a3d 9ccc d4bd
000001d0: 5990 cebd bcf4 9bbe c24a 983d 3a0b f43d
000001e0: c1c0 d4bd b62b 19bd f83f 8bbd 16e8 08bd
000001f0: a21d 55bd dc28 fb3c 224c 11bf e56b 07bf
00000200: 1225 14bf 1b90 2fbf 1ca2 f5be dd43 16bf
00000210: fbc0 2fbf 8c8e 20bf 9c22 03bf 9c5b 1dbf
00000220: 149a 1cbf 08fe eebe ac8e 04bf 457e 1fbf
00000230: 56c4 eebe 84fe 13bf cc89 1bbf 9240 00bf
00000240: c9b9 323f b235 2f3f 6e40 353f 5ecf 113f
00000250: ad72 1d3f 6740 223f 40fc 203f 55d6 053f
00000260: 800e 093f bb5c ff3e 0ef4 083f 7fdc 133f
00000270: dcae 053f 530f 023f 4afd 163f 50fe fd3e
00000280: bc41 253f c591 063f 6a54 b7bd 396b 603d
00000290: 5190 b5bd 45c6 c03d 88e4 a3bc 1fe2 773d
000002a0: f67a 93bc 356a a13d 9c83 a6bc 9ecb 23bf
000002b0: dccd 943e 3776 e9be c525 fcbe 30c5 10bf
000002c0: 341d 083f 5cd5 16bf 4386 e3be 4444 223f
000002d0: ca86 a53e 6f33 27be ca88 fe3d b0f9 bebe
000002e0: 401d efbe 5bc8 55be f373 febe 8b02 e0be
000002f0: 9031 c8be b53b e4bc bff8 223e c7eb 043f
00000300: f4af 8f3e 9382 c93e 4f52 a33e 87fa 983e
00000310: 4b08 aa3e 52ea 853e eb8e 203f ba9d 0c3f
00000320: a22e 193f 3a24 2c3f 9b02 303f e6a6 2c3f
00000330: f059 363f 5292 353f bdc6 263f cdb1 1f3f
00000340: d63c 2b3f 3545 1c3f e762 073f a20f 043f
00000350: 613e 313f 3575 023f 42d4 023f 330d 193f
00000360: 0d07 19bf 3ab1 22bf 473d 37bf 2f4c 04bf
00000370: a144 21bf e4d5 0fbf 548e 22bf 5fc9 21bf
00000380: aeb7 00bf ca15 01bf 0784 35bf bf47 fabe
00000390: f902 24bf 0a68 08bf 4bdc 09bf a636 0fbf
000003a0: 84cf 09bf 7a24 32bf 7777 b5bd bd92 903d
000003b0: a813 babd a7a7 d53d f287 8cbd 674f 6cbd
000003c0: 6680 033d 99f0 31bd 037f d0bc 9a85 23bf
000003d0: e378 12bf 97a2 15bf 2dc8 fbbe f826 26bf
000003e0: fccc 31bf a316 2ebf 9dbb 13bf ca6e f4be
000003f0: bb56 f5be 210e d8be 207e 09bf 139b fcbe
-0.52168185 -0.49534932 -0.5448475 -0.6948053 -0.5345374 -0.60959136 -0.5131844 -0.513412
-0.6510183 -0.6993552 -0.66167283 -0.5902391 -0.63268316 -0.5478154 -0.6310442 -0.51865256
-0.59367174 -0.5180824 0.053357247 -0.10019071 -0.032049835 0.06889605 -0.069481164 0.040598117
-0.09433369 0.07150901 0.056891613 -0.4969699 -0.5543721 -0.5730598 -0.5423127 -0.46703526
0.49164662 -0.54596716 -0.5486319 -0.6028808 -0.21181172 -0.21382166 0.38302335 0.102466054
-0.13968433 -0.28487796 0.016387783 0.18649293 0.24469459 -0.35979143 -0.527558 -0.45511028
-0.4956257 -0.33655447 -0.39681947 -0.4508178 -0.4956524 -0.45127574 -0.65761507 -0.61358076
-0.65658706 -0.68971467 -0.62001574 -0.6366455 -0.48311153 -0.49929076 -0.6343004 -0.62365115
-0.6865653 -0.6156005 -0.5759983 -0.6139688 -0.71187544 -0.69848466 -0.59358037 -0.56075233
-0.5386258 -0.63706946 -0.504936 -0.09942577 -0.42334527 -0.57381916 -0.65844625 -0.6265749
-0.6192279 -0.50611645 -0.6273168 -0.50040823 -0.6143079 -0.67690915 -0.5222456 -0.4866957
-0.60935205 -0.6097673 0.025968485 0.11622294 0.04546707 0.016801022 0.010919191 -0.021704532
0.091350935 -0.02165176 -0.048970252 -0.5061826 -0.49107933 -0.57004994 -0.06999849 -0.3408764
0.5165989 -0.3351509 -0.47745687 0.46115214 0.026624285 -0.049037337 0.07554733 0.0341189
-0.040880986 0.023204185 0.033863388 -0.10390589 -0.10086126 -0.30460155 0.07436134 0.11916204
-0.103883274 -0.0373952 -0.067993104 -0.03342446 -0.052030213 0.030659132 -0.56756794 -0.5289901
-0.57869065 -0.6857926 -0.47975242 -0.586973 -0.6865384 -0.6271751 -0.51224685 -0.6146791
-0.61172605 -0.46678185 -0.517802 -0.62302047 -0.46634167 -0.57810235 -0.60757136 -0.50098526
0.69814736 0.6844131 0.70801437 0.5695704 0.61503106 0.6337952 0.628849 0.5228017
0.5353775 0.49875435 0.534974 0.57758325 0.5221994 0.5080463 0.5898024 0.49608088
0.6455343 0.52566177 -0.089516476 0.054789755 -0.08865417 0.09412817 -0.020006433 0.06051838
-0.018002968 0.078815855 -0.020326428 -0.6398257 0.29063308 -0.45598003 -0.49247566 -0.56550884
0.5316956 -0.5891931 -0.4443837 0.63385415 0.32329398 -0.16328214 0.12428434 -0.3729987
-0.46702003 -0.20877211 -0.49697837 -0.4375194 -0.39100313 -0.027860502 0.15915202 0.5192227
0.2806393 0.39357433 0.31898734 0.29878637 0.33209452 0.26155335 0.62718076 0.5492817
0.5983678 0.6724278 0.68753976 0.67442167 0.71230984 0.7092639 0.65147 0.6238068
0.66889703 0.610431 0.5288529 0.51586354 0.6923581 0.50960094 0.5110513 0.59785765
-0.59776384 -0.63551676 -0.71577877 -0.51678747 -0.62995344 -0.56185746 -0.63498425 -0.6319789
-0.5028027 -0.5042387 -0.7090458 -0.48882863 -0.64067036 -0.5328375 -0.53851765 -0.5594276
-0.5383227 -0.6958691 -0.08860677 0.07059238 -0.090857804 0.10432368 -0.06861867 -0.05769291
0.032104872 -0.043442342 -0.025451189 -0.63875735 -0.5721571 -0.5845122 -0.4917616 -0.6490321
-0.69453406 -0.6800329 -0.5770815 -0.47740775 -0.47917733 -0.4219828 -0.53708076 -0.49337062

bias f4 [16]
00000000: 4ed4 12bf 0a55 25bf f33c 323f 1399 08bf
00000010: e499 a2bd 7202 b0bd b718 09bf e910 2e3f
00000020: dd6d 1f3f 3311 18bf a0c3 86bd 8e64 aabd
00000030: a49e 00bf 22f2 01bf 686a 53bd 0405 1cbf
-0.573552 -0.64582884 0.6962425 -0.5335857 -0.079395086 -0.085942164 -0.53553337 0.6799455
0.62277013 -0.59401244 -0.06580281 -0.083199605 -0.50242066 -0.5076009 -0.05161515 -0.60945153

weight f4 [32, 16, 3, 3]
00000000: 6773 24bf 55c7 06bf fb9e 01bf 1d9e 0abf
00000010: cd89 1bbf 45fb 04bf 5989 0fbf e6c3 17bf
00000020: 3c67 8d3e daf7 c1be e2f8 dbbe c48c df3e
00000030: 69b2 14bf 4ff7 03bf 88c3 f9be 593d 06bf
00000040: a254 0fbf 61b2 12bf 25a9 05bf 1934 2dbf
00000050: 40c1 0fbf e508 14bf 9e33 22bf 547e 22bf
00000060: 051c 1bbf c194 11bf 7466 11bf eb25 1fbf
00000070: d121 06bf 2e86 17bf 7287 23bf a385 1dbf
00000080: 6e77 1cbf 2d9f 27bf cb4f 13bf 1e9e 2abf
00000090: c8b2 693c 2852 7abd 11f0 853d e07a 2ebc
000000a0: c6da 8abd 04f9 a6bd 0658 7cbd 2c0f 913c
000000b0: 9b18 9f3d a9af a63d 3256 0f3d 4686 14bd
000000c0: d08c 983b 763c 763d f050 bcbb 9d98 973d
000000d0: 60d6 2d3c d095 e43c f051 2abf 003d 05bf
000000e0: 29d6 04bf b604 15bf fdfc 2abf 396e 08bf
000000f0: 02ec 0fbf e75f 09bf 0b2e 18bf 0e0d 1dbf
00000100: 2e37 16bf 8035 19bf 9c32 28bf 9426 15bf
00000110: 21d0 29bf 0b46 16bf 37b5 2cbf b409 0ebf
00000120: 3b72 09bf 45ee c8be 35a7 cb3e 6563 f7be
00000130: dfa6 03bf bf61 e8be ed74 e4be 9cb1 edbe
00000140: f82b 19bf 109b 26bf 9175 2bbf b6c3 06bf
00000150: ba34 1cbf b168 27bf ad39 10bf 72f1 20bf
00000160: e530 0bbf 9fe2 26bf 8013 43bd eb7b 38bd
00000170: 5885 0d3c c0e8 09bd 800e febb 48e1 46bd
00000180: 2355 38bd 78a1 78bd 0697 2f3d 58df 38bc
00000190: 1645 6dbd 4e1e 71bd 7018 3cbd 4d9c a93d
000001a0: 40dc c5bc 28aa 4abd 7f92 a8bd 5bee 5fbd
000001b0: d08f 0cbf 3957 10bf f51b 0cbf 46a0 14bf
000001c0: 66d8 12bf 95ff 19bf eeb0 05bf 8f0c 23bf
000001d0: 0093 08bf b0e4 27bf 40a5 1bbf 5d84 10bf
000001e0: 5c86 1fbf 7f8a 26bf f316 11bf eb63 2bbf
000001f0: 1f3e 05bf 7c29 09bf b382 9abd 2221 2f3d
00000200: 1011 99bc a41e 9cbc a870 403c ca9c 9abd
00000210: 16ba 173d 8869 3e3c 73cd 40bd bb30 16bf
00000220: 8e41 0ebf 29a2 09bf c2e4 24bf 7bfc 14bf
00000230: e248 23bf 23e9 28bf e93b 16bf b89f 1ebf
00000240: ee0b 2e3d 4c64 a1bd aedf 363d c7f0 66be
00000250: 6d1e 4fbe bcfb e5bd e135 d1be a173 9bbe
00000260: 358a 3cbe 3b1c 36bd 59c9 8b3d 8011 56ba
00000270: 330b 12bd 2e04 033d b60e 66bd b40f e43c
00000280: 88de 41bd 2acc 303d 1706 053f 2bcb 083f
00000290: a8d2 213f 18db 213f 4c12 143f 7f13 183f
000002a0: b9a1 093f 19ab 1f3f 36fb 0d3f 68bd 243f
000002b0: d284 173f fbcc 0d3f 3526 033f 1b28 113f
000002c0: 3af9 043f 64a2 153f 356f 2b3f f160 2c3f
000002d0: ccb4 afbc 4a1a 633d e85f 49bd 8010 5abb
000002e0: 2434 a1bd 1885 0bbd 9c1a b4bc 2461 8bbc
000002f0: 21e1 a13d 88bc 1dbc f699 7b3d 40c9 8fbd
00000300: 2caf e7bc 7a5f 94bd aeba 99bd dcfa 8bbd
00000310: 5e6f 11bd f4d9 ac3c 1bb8 173f 2c1c 083f
00000320: 39e3 1d3f 0402 063f ea28 1a3f df21 0b3f
00000330: 57be 023f fd97 123f cd25 253f 8bd9 273f
00000340: 5640 293f 55cd 043f 3d12 043f 3e3c 153f
00000350: 646b 0d3f 92f7 033f 529a 133f 1cb6 0a3f
00000360: 5801 d3bc 8f1b bdbd bfad c8bd 0113 89bd
00000370: 8655 aabd af4a 2ebb 967d bdbd d10e e6bd
00000380: e55b c1bc a8a0 083f baa8 0e3f bc82 0a3f
00000390: b302 2b3f b28d 263f 42fb 083f 3215 263f
000003a0: 22c0 023f 57b2 1e3f 2954 a13d 0083 97b9
000003b0: 2c06 9ebc 38be 493c 00d5 6abb 5f2d 933d
000003c0: 9c90 9d3c 00c4 88ba 15b8 a93d 33ca 54bd
000003d0: 3614 68bd b406 9abc 387f 09bd 336d 1ebd
000003e0: f8d9 73bd 1a23 213d 7012 53bd 282b 91bd
000003f0: 39eb 083f ac73 1c3f 8100 123f 44be 243f
-0.6423859 -0.52647907 -0.5063321 -0.5414751 -0.6075714 -0.51945907 -0.5606895 -0.5928329
0.27617824 -0.37884408 -0.4296332 0.43662083 -0.5808473 -0.5154924 -0.4878199 -0.5243736
-0.55988514 -0.57303435 -0.5221122 -0.6765762 -0.5615425 -0.5782607 -0.6336001 -0.6347401
-0.6058963 -0.56867605 -0.56796956 -0.62167233 -0.5239535 -0.59189117 -0.6387855 -0.6153204
-0.61119735 -0.6547726 -0.5754363 -0.6664752 0.014263816 -0.061113507 0.0653993 -0.010649413
-0.06780009 -0.08152965 -0.061607383 0.01770743 0.07768365 0.08138973 0.03499431 -0.036260866
0.004655458 0.060116254 -0.005746953 0.074021555 0.010610193 0.027903467 -0.66531277 -0.52046204
-0.5188928 -0.58210313 -0.6679228 -0.53293186 -0.56219494 -0.5366196 -0.59445256 -0.61348045
-0.5867795 -0.5984726 -0.65702224 -0.5826199 -0.66333205 -0.5870063 -0.6746401 -0.55483556
-0.53689927 -0.39244285 0.39776006 -0.4831802 -0.514265 -0.45387074 -0.44620457 -0.46424568
-0.59832716 -0.65080357 -0.6697627 -0.5264238 -0.61017954 -0.6539412 -0.56338006 -0.62868416
-0.5437148 -0.65189546 -0.04762602 -0.045040052 0.008637749 -0.033669233 -0.0077531934 -0.04855469
-0.045003068 -0.060700864 0.042868637 -0.011283718 -0.057927214 -0.05886679 -0.045921743 0.08281765
-0.024152875 -0.04947868 -0.08231067 -0.054670673 -0.5490694 -0.5638309 -0.5473016 -0.5805706
-0.5736145 -0.6015561 -0.522231 -0.6369104 -0.53349304 -0.65583324 -0.60799026 -0.5645197
-0.6231439 -0.6505508 -0.5667564 -0.6694934 -0.52047914 -0.53578925 -0.0754446 0.042756207
-0.018684894 -0.01905758 0.011745609 -0.075494364 0.0370427 0.01162184 -0.04707093 -0.58668107
-0.5556878 -0.5376306 -0.64411557 -0.58197755 -0.63783085 -0.6598074 -0.58685166 -0.6196246
0.042491846 -0.07880458 0.04464691 -0.22552787 -0.2022645 -0.11229655 -0.4086142 -0.30361655
-0.18412097 -0.044460516 0.068255134 -0.000816606 -0.03565521 0.031986408 -0.056166373 0.02783952
-0.047331363 0.043163456 0.5196242 0.5343501 0.6321206 0.63224936 0.5784042 0.5940475
0.53762394 0.6237045 0.5546144 0.6435151 0.5918704 0.553909 0.51230174 0.5670182
0.5194279 0.58450913 0.66966563 0.6733542 -0.021448515 0.055444993 -0.04916373 -0.0033273995
-0.07871273 -0.034062475 -0.021985345 -0.017014094 0.07904268 -0.009627469 0.061426125 -0.07020807
-0.02828177 -0.07244773 -0.075063094 -0.06834957 -0.0355066 0.021100022 0.592653 0.53167987
0.6167484 0.52346826 0.6021868 0.5434856 0.51071686 0.57263166 0.64510804 0.6556632
0.66113794 0.5187581 0.5159033 0.5829505 0.5524199 0.5154964 0.5765735 0.54184127
-0.025757477 -0.09233772 -0.097987644 -0.06693078 -0.083170936 -0.0026594808 -0.09252469 -0.11233295
-0.023603389 0.5337014 0.55726206 0.54105735 0.66800994 0.6505996 0.5350839 0.6487609
0.5107442 0.61990875 0.078773804 -0.00028898567 -0.019290052 0.012313418 -0.0035832524 0.07186388
0.019233994 -0.0010434389 0.08287064 -0.051950645 -0.0566599 -0.018802024 -0.03356859 -0.03867836
-0.059534043 0.039340116 -0.051531255 -0.070883095 0.5348392 0.61114 0.5703202 0.6435282

bias f4 [32]
00000000: 976e 06bf 85f1 243f 5edf 0fbd 63ab 11bf
00000010: 0e58 12bf c825 1abf 69db 22bf 503e afbc
00000020: b8d6 9fbd e420 213f f671 04bf 2c4d 91bc
00000030: c14f 08bf 24ae 1d3f 5a9e 2b3f 26c6 1e3f
00000040: 1838 08bf 66be 7fbd c47b 243f 3d3f 213f
00000050: 0391 08bf b6f4 25bd 7042 4bbd ac07 153f
00000060: 14f4 0bbf 40f2 19bf 1582 203f 2e93 293f
00000070: 4ed5 1abf c7c0 17bf 6c10 1f3f d8ae 66bc
-0.52512497 0.6443103 -0.03512513 -0.5690214 -0.5716561 -0.602139 -0.63616043 -0.021392018
-0.07804626 0.6294081 -0.5173639 -0.017736994 -0.53246695 0.6159384 0.670385 0.620211
-0.5321059 -0.062437437 0.6425135 0.6298712 -0.5334627 -0.040516578 -0.049623907 0.5821483
-0.5466931 -0.6013527 0.6269849 0.66240203 -0.6048173 -0.5927853 0.6213443 -0.014079772

weight f4 [64, 32, 3, 3]
00000000: e4c2 553c 4847 e1bb d290 40bd dde2 31bd
00000010: 9a5c e73c e0cf 58bd 8c7d 61bc a234 cebc
00000020: 98d5 61bd b829 983b 48a9 f53b 9688 d0bc
00000030: 880b c0bb 8076 183a f998 1a3d 6548 713d
00000040: 4ab3 ea3c 78df 4abc 8338 5d3d 3442 35bd
00000050: cb25 073d 56ef 9a3c a852 1cbc 259e 1c3d
00000060: dccf 653c 604c f8bb 926f e53c de4d d6bc
00000070: 9c7f bdbc cf48 4dbd 6718 31bd 0016 22bd
00000080: 114d 2c3d 7d69 68bd 883e 9ebc 1e4a 833c
00000090: 80f5 ec3a 86b0 a13c e031 7dbb 2662 e33c
000000a0: dc57 433c c801 8a3b df7f 143d d944 2a3d
000000b0: 656a 163d eeb5 2fbd c4e2 2dbc af29 0d3d
000000c0: 7bef 42bd 7bf9 153d 47d0 253d 80d4 82b9
000000d0: 08d8 cabb 6088 fe3a 2f47 13bd d064 3bbd
000000e0: c80f e23b 2053 51bb e659 cdbc b618 9bbc
000000f0: 0858 9a3b 963d 9dbc 03df 6b3d a0e7 59bc
00000100: cb61 0a3d 7059 92bc 9896 1dbc 4326 3c3d
00000110: 611d 3c3d ee0b d7bc 06ac c03c 015e 473d
00000120: 649e 3e3c d462 01bc a235 53bd 42a6 2bbd
00000130: 61e0 043d 1c4f 183c 1c46 a3bc 4921 253d
00000140: f0d2 cdbb 653f 0c3d 4d6a 393d 8270 cbbc
00000150: 2481 223c 9ffe 4bbd 2aa5 1ebd 7838 833b
00000160: 27d7 6c3d 3fc5 3fbd 42d0 5bbd d62e b33c
00000170: d176 27bd 58d5 ef3b 1caf 063c 2637 bc3c
00000180: 2050 573b 0864 b13b ae71 f53c e3b5 403d
00000190: eb1e 113d a81b fcbc 3a82 98bc 8e4d b23c
000001a0: 3a03 12bd b2fb a43c 8b3a 713d 1eca 1bbd
000001b0: 7e16 3fbd 67e2 3b3d 6be6 5c3d 600a 2bbd
000001c0: f970 063d a89f c43b e6a3 e4bc e522 2fbd
000001d0: 069f d7bc e286 52bd e1b3 47bd 74ea 123c
000001e0: dddb 3bbd ace0 d3bc 10cc c4bc abde 613d
000001f0: f278 0fbd e449 2fbd bdbe 553d 8e99 c1bc
00000200: 7c2b 22bc df6e 193d 12eb 4ebd 20b6 3bbc
00000210: d6f1 b53c e6f5 25bd 6c85 43bd e390 52bd
00000220: 20a0 22bd c425 143c 75f4 243d 9690 b9bc
00000230: 843a 55bc e0f5 55bc 3e8f 0ebd bd41 5ebd
00000240: 70d3 75bc 201c 3abb 00cf f4bb bac8 92bc
00000250: 91a0 f1bc 2c30 46bd 06f7 963c b9f5 053d
00000260: 2cab 603c bea6 18bd e88c ecbc 6fc0 693d
00000270: ef53 4ebd 7b56 323d f022 b4bc 0bec 4e3d
00000280: 2010 a5bc 84c4 07bc 0985 6ebd cec3 843c
00000290: 8a47 26bd 0050 21b8 ca89 fa3c f8a4 dabb
000002a0: 3b10 3a3d dd0b 41bd b099 41bd a0a4 b4bc
000002b0: 4ec0 ea3c 72f8 91bc 8a75 a73c 4f5f 303d
000002c0: a6f9 b43c 5fc5 70bd bae2 32bd 32c8 d73c
000002d0: 906e bebc 2061 f2ba 245e 4f3c 0227 843c
000002e0: 7469 7b3c eec4 2abd 305f 783b 919a 633d
000002f0: 00d0 3dbc 1bed 5d3d 3dd8 3d3d 8875 a8bc
00000300: b22c b6bc 6813 b9bb 4bae 353d 875b 693d
00000310: a6a9 b23c 6c64 123c 847f 46bd bce3 1ebc
00000320: 6667 b33c e358 3ebd f873 e7bb 2f77 0d3d
00000330: 37d4 2d3d 1aa4 ba3c 9bc2 0dbd a8a2 febb
00000340: e021 d4bb 40bd a7bb 2067 053b 0653 ebbc
00000350: d02f 6dbd f62c edbc 4e1e cf3c 363a b23c
00000360: 7c31 6abd 8d11 073d 5d4c 02bd ed91 1c3d
00000370: fcc1 0f3c c06d 1e3a aecf b23c 09d7 16bd
00000380: f07d 96bb 3daa 6f3d 522f e23c 517e 6e3d
00000390: e9ff 5d3d c609 cbbc 6c57 2c3c 6a3a 2abd
000003a0: 71b5 6a3d df4a 083d 02d8 3dbd 1977 eabc
000003b0: 7552 1cbd 0558 43bd 18e1 c7bc cda6 4cbd
000003c0: 4cfa 193c 1245 03bd 085e 57bc 7656 f03c
000003d0: 5836 49bd 8ba3 4bbd ef1f 37bd 04cd 423c
000003e0: b396 513d e95a 5fbd fc25 28bc bc47 8dbc
000003f0: f604 1bbd 5ce4 1e3c 7afc e63c a8eb 983b
0.013046954 -0.0068749525 -0.04701311 -0.043429244 0.028242398 -0.05293262 -0.013762843 -0.025171582
-0.05513534 0.004643645 0.0074969865 -0.025455754 -0.0058607496 0.0005815998 0.037743542 0.05890693
0.028649945 -0.012382381 0.054008972 -0.04425259 0.032995027 0.018912952 -0.009541191 0.038236756
0.014026608 -0.007577464 0.028007302 -0.026160177 -0.023132138 -0.050118264 -0.043236163 -0.039571762
0.042065684 -0.056741226 -0.019316927 0.016026553 0.0018078536 0.019737493 -0.0038634464 0.027756762
0.011922803 0.004211638 0.03625476 0.041569564 0.03672256 -0.04289811 -0.010613147 0.03446358
-0.047591668 0.036614876 0.040481832 -0.00024953857 -0.0061903037 0.0019419305 -0.035956558 -0.04575044
0.006898854 -0.0031940416 -0.025067281 -0.018932682 0.004710201 -0.019194406 0.057585727 -0.013299853
0.03378467 -0.017864913 -0.009618424 0.045934927 0.045926455 -0.026250806 0.023519527 0.048673633
0.011634443 -0.007897098 -0.05156482 -0.041906603 0.032440547 0.009296205 -0.019930892 0.040314946
-0.006281249 0.034240145 0.045267392 -0.024833921 0.009918485 -0.049803372 -0.03873173 0.0040045343
0.057822373 -0.046818968 -0.053665407 0.021872919 -0.040884797 0.0073191337 0.00822046 0.022975516
0.0032854155 0.005413536 0.029961433 0.04704846 0.035429876 -0.030774906 -0.018616784 0.021765497
-0.03564761 0.020139549 0.05889372 -0.03803455 -0.04665231 0.04587021 0.05393068 -0.04175794
0.032822583 0.006000478 -0.027910184 -0.042757887 -0.026320945 -0.051398166 -0.04875553 0.008967031
-0.045863975 -0.025863968 -0.024023086 0.055143993 -0.03502745 -0.042795077 0.052183855 -0.02363279
-0.009898063 0.03745925 -0.05051715 -0.011456996 0.022210043 -0.04051771 -0.047734663 -0.051407706
-0.03970349 0.009042207 0.040272195 -0.022651952 -0.0130144395 -0.013059109 -0.034804575 -0.05426191
-0.015004024 -0.0028398111 -0.0074709654 -0.01791798 -0.02949551 -0.048385784 0.018428337 0.032705043
0.013712686 -0.037268393 -0.028875783 0.057068285 -0.050373014 0.043539505 -0.021989316 0.050518077
-0.02014929 -0.008286599 -0.05823234 0.016206648 -0.04059557 -3.8459897e-05 0.030583281 -0.006672498
0.045425635 -0.047130454 -0.04726571 -0.022051156 0.028656151 -0.017818663 0.02044179 0.043059643
0.022091698 -0.058781978 -0.043673255 0.026340578 -0.02324608 -0.001849208 0.012656722 0.016131882
0.015344966 -0.041691713 0.0037898533 0.055567328 -0.011585236 0.0541812 0.0463488 -0.020563856
-0.02223811 -0.0056480654 0.04435567 0.056972053 0.02180941 0.008935075 -0.048461452 -0.009697851
0.02189989 -0.046471488 -0.007063385 0.03453749 0.042438712 0.022783328 -0.03460942 -0.007770855
-0.006473765 -0.005118996 0.0020355657 -0.028726112 -0.057906926 -0.028952103 0.025283005 0.021756273
-0.0571761 0.032975722 -0.031811107 0.038225103 0.008774277 0.00060435757 0.021827545 -0.036826167
-0.0045926496 0.05851196 0.027610455 0.058225933 0.054199133 -0.024784934 0.01051889 -0.041559614
0.057301942 0.033274528 -0.04634858 -0.028621243 -0.038164575 -0.047691364 -0.024399325 -0.04996376
0.009398054 -0.032048292 -0.013144977 0.029338103 -0.049124092 -0.049716514 -0.04470819 0.0118897
0.05116911 -0.054530058 -0.010262962 -0.01724612 -0.037846528 0.009698 0.028196562 0.0046667643

bias f4 [64]
00000000: 3e2e 9b3c e8b1 ccbb ce9e afbc 0688 dabc
00000010: 7277 22bf 97d6 41bd d8b2 f8bb 6e5d 03bd
00000020: 0506 253f 8910 283f 76ab 0dbf e391 0d3f
00000030: c278 b73c e8c6 d93b 0abc 15bf 69c1 173f
00000040: d9e3 153f a4a3 26bc 00b5 43bb f538 233f
00000050: 4844 33bd 5f2d 2abd ea0c 0bbf 88d3 21bf
00000060: e795 12bf 588d 97bb 606d 1dbf 2091 88bc
00000070: 3d86 70bd 6947 2d3d 82af 273f cdb2 53bd
00000080: 4898 e0bb 14a2 043c 7c9f 50bc 2e97 0abf
00000090: 551a 1ebf 503d 46bd 7cee 14bf 7b9d 1abf
000000a0: 7e95 133f c8bd 56bc f8ac 27bc 82c0 0cbf
000000b0: 7057 13bc 49cc 203f ff34 0cbf f313 0fbf
000000c0: 9ad4 0abf 63e0 21bf d4c2 11bf 28ce b2bb
000000d0: 28b5 a1bc d222 a6bc 8451 3ebc 8029 5bbb
000000e0: 44f0 213f 7308 0f3f 4707 4abd 3cf7 173f
000000f0: 4cfc a3bc a046 e23a b8d9 d8bc bc37 0fbf
0.018942948 -0.006246794 -0.021438029 -0.02667619 -0.6346351 -0.04732379 -0.007589679 -0.032071523
0.6446231 0.6565023 -0.55339754 0.5530073 0.022396449 0.006646026 -0.5849005 0.59279495
0.5855079 -0.010170851 -0.0029862523 0.63758785 -0.04376629 -0.041547175 -0.5431658 -0.63213396
-0.5725998 -0.004625004 -0.6149502 -0.016670763 -0.05872177 0.04230443 0.6550218 -0.05168419
-0.006854091 0.008095283 -0.012733337 -0.5413693 -0.6175893 -0.048398316 -0.581764 -0.60396546
0.5764998 -0.013106771 -0.01023411 -0.54981244 -0.008993015 0.62811714 -0.54768366 -0.55889815
-0.54230654 -0.6323301 -0.5693791 -0.0054567046 -0.019739702 -0.020280275 -0.0116161145 -0.0033441484
0.6325724 0.5587227 -0.049323346 0.59361625 -0.020017765 0.001726348 -0.026471004 -0.5594442

weight f4 [64, 64, 3, 3]
00000000: 44f6 18bd 9634 b4bc 3c98 28bc 6bc5 b0bc
00000010: 6061 c93b 362c d23c 140c 3f3c 9873 803c
00000020: 808f acbc 6f68 07bd d9bc 1b3d d21b ea3c
00000030: 7a3f bf3c 0640 cebc 82c4 03bd 0080 4c3c
00000040: f32b dabc 00cc fcbb 18ca e5bc c62e c4bc
00000050: e79a 023d 00cf 0dba 9b24 143d e05d 5f3c
00000060: 0c81 613c 4058 96bb c5a5 103d a065 ed3b
00000070: 8a45 8c3c 4861 ffbc c49c 373c be18 e9bc
00000080: dce7 733c 2e81 d23c 8c68 48bc 0343 edbc
00000090: 90b8 a13c 9bd6 13bd 8071 e0bc 2041 59bc
000000a0: ac5d 073c 1d3e 123d 9b76 9abc 3607 29bd
000000b0: 2162 0a3d 6911 0e3d d04f bcbc 7429 20bc
000000c0: 50af 24bd 6a39 c63c 5890 8ebc 2e95 0abd
000000d0: 1019 19bb 00a4 6dbc 84f0 09bd 00c2 1fbd
000000e0: 00ad 373b dcef 2ebc 7820 be3b 6090 a0bc
000000f0: 1fc8 223d f08b 543c 3b69 94bc 5094 3a3c
00000100: 5e2c c0bc 3ef1 ce3c 0370 0ebd 6e2b 96bc
00000110: 2057 813c 1005 9e3c 7b52 bbbc 3ba4 dabc
00000120: 44d7 303c 78fd aabc cca5 153c 4046 4a3b
00000130: d837 a4bb 7f4f 0f3d ac63 31bc a8ad 893b
00000140: 3387 03bd c685 803c 981c 963c ec11 61bc
00000150: 3a8e b63c 281d 07bd db78 223d f6bd 29bd
00000160: 03eb bdbc 400b 97bb 8fed 0dbd 3b95 ddbc
00000170: f0ef 5d3c 001a f3b8 f064 123b c8d1 ebbb
00000180: 7f4a 033d d010 9c3c 5812 b03b 6fec 123d
00000190: 26d7 b3bc 58c0 a1bb 60a1 e73b 908b 6d3b
000001a0: 5c7a 273c cc68 72bc 96c3 953c 10a8 3cbc
000001b0: 489b ed3b 46cd acbc 2011 fb3a aadb 21bd
000001c0: c09e 1dbb 506d 0dbd c4c8 7d3c 002b f7bb
000001d0: 1681 e83c 158b 203d 00ed 4f3a 6bce 8ebc
000001e0: 7e7d f6bc 5ad7 0abd 06b3 c1bc 20fc 693c
000001f0: 5014 9bbc fcc2 023c 1f3c 083d b005 15bc
00000200: 9889 1dbd 04b3 0d3c cea0 f6bc f90b 1f3d
00000210: bcd8 19bc fc45 17bc 3a3e d53c 7cb3 433c
00000220: 0a2d d73c 1ef0 f2bc c71d 093d 3ddc 003d
00000230: d563 023d 8e09 d93c 809f 013c c3c5 f6bc
00000240: 0c17 43bc 63c9 fbbc ffd2 23bd 072c 01bd
00000250: 760c 4dbc 302e 493b e0e6 d33a d87c f43b
00000260: 30db 1d3b 6659 8fbc 3f66 083d 3073 163c
00000270: 259b 1e3d 1883 e0bc 00c8 ebbb ec22 383c
00000280: 989b 07bd 721c 8a3c 00c8 813a c03e 9d3c
00000290: 1065 0abb 40f2 87bb 50e7 75bb 861a adbc
000002a0: 2608 ffbc c0e3 11bb b801 87bc b821 8b3c
000002b0: a1b7 083d 82c2 cd3c d09a 25bb c8e3 e4bb
000002c0: cb28 c0bc 3a10 a53c 88dc 91bc 078d 103d
000002d0: deec 903c 50ce 00bc e6a4 c23c 2823 cebb
000002e0: f1f8 143d 1a53 843c 38fb c53b 7959 113d
000002f0: 7cf8 6dbc e27a ab3c 165a cf3c f307 a1bc
00000300: 4342 a6bc 3c52 13bd 28c4 e9bc 89fa 023d
00000310: 4079 403b e3f6 0bbd 2967 113d def9 c93c
00000320: 8c63 62bc d00f 2fbc 740e 0abd 23d4 f1bc
00000330: 2080 aa3c 2360 123d e4a1 633c 80a6 80b9
00000340: 4c3c 06bc 7d47 233d 42ec 07bd 5000 803c
00000350: aa55 ae3c c078 59bc 80b5 523c cee6 94bc
00000360: 7cc5 05bd 908b 723b ee42 c1bc 3e5c b93c
00000370: 824a 00bd f67d 87bc a804 15bd b00e 35bb
00000380: 1416 2e3c 3c23 283c ba33 ae3c 803c f8bc
00000390: 0098 0a39 7e3d dd3c c908 013d ce89 853c
000003a0: 0af4 f93c 00d4 aaba ee1e d0bc 289f 1abd
000003b0: e6c3 1abd 384a 893b 7c74 0bbc 7dd5 0e3d
000003c0: 5601 89bc d8e1 f0bb f6fc acbc e6c8 c83c
000003d0: ae8b a53c 8760 0e3d b80e c0bc d02d 37bb
000003e0: 272b 063d c662 9cbc 5b74 19bd b41d 1ebd
000003f0: 6801 e9bb 4ea5 fbbc e055 d7bc f276 953c
-0.037344232 -0.021997731 -0.010290202 -0.021578511 0.006145641 0.025655847 0.0116605945 0.01568012
-0.02106452 -0.03305858 0.038021896 0.028577719 0.023345698 -0.025177013 -0.032169826 0.012481689
-0.026632285 -0.0077147484 -0.028050467 -0.023948085 0.031886008 -0.00054095685 0.036167722 0.013633221
0.013763677 -0.004588157 0.03531434 0.0072447807 0.017123003 -0.031174317 0.011206809 -0.02845418
0.014886823 0.025696363 -0.012231957 -0.028962618 0.019741327 -0.036093336 -0.027397871 -0.013260156
0.008262079 0.035703767 -0.018855384 -0.041266643 0.03378499 0.034684572 -0.022987276 -0.009775508
-0.040206254 0.024197299 -0.017402813 -0.033833675 -0.0023360886 -0.014504433 -0.03367664 -0.039003372
0.00280267 -0.010677304 0.0058022104 -0.019600093 0.03974163 0.012972817 -0.018116584 0.0113878995
-0.023458656 0.025261518 -0.03477479 -0.018331256 0.015788615 0.019289523 -0.022866478 -0.02668964
0.010793511 -0.020872816 0.009133767 0.0030864626 -0.00501154 0.034987923 -0.010826986 0.0042016096
-0.032111358 0.015688788 0.018324181 -0.013737183 0.022284616 -0.03298679 0.039666038 -0.041440926
-0.023183351 -0.0046094954 -0.03465038 -0.027048698 0.013545975 -0.00011591986 0.0022337995 -0.0071966387
0.032053467 0.019050986 0.0053732805 0.035870012 -0.021953177 -0.0049362592 0.007068798 0.0036246516
0.010222044 -0.014795493 0.01828174 -0.011514679 0.007251177 -0.021093976 0.0019154884 -0.03951613
-0.0024050921 -0.034528077 0.015489761 -0.007542968 0.028381865 0.03919514 0.0007931739 -0.017432412
-0.030089136 -0.03389678 -0.023644935 0.014281303 -0.018930584 0.007981058 0.03326046 -0.009095594
-0.038461298 0.008648638 -0.030105975 0.038829777 -0.009390052 -0.009232994 0.026030648 0.011944648
0.026266593 -0.029655512 0.033475664 0.031460036 0.03183349 0.026493814 0.007911563 -0.030123597
-0.01190735 -0.030735677 -0.039996143 -0.03153613 -0.012515178 0.0030697696 0.0016166829 0.0074611716
0.0024086945 -0.017498683 0.033300634 0.009182736 0.038722176 -0.02740626 -0.0071954727 0.011238795
-0.03310737 0.016859267 0.0009901524 0.01919496 -0.0021117367 -0.0041487515 -0.0037521906 -0.021130811
-0.031131815 -0.0022260994 -0.016480312 0.016983852 0.033378247 0.025117163 -0.0025269277 -0.0069851615
-0.023456952 0.020149339 -0.017805353 0.035290744 0.017691072 -0.007861689 0.02376027 -0.006290812
0.03637022 0.016152907 0.0060419105 0.03548572 -0.014524575 0.020932619 0.025311511 -0.01965711
-0.020295268 -0.035967097 -0.028535917 0.03197721 0.0029369146 -0.034170996 0.03549877 0.024655279
-0.013817679 -0.010684922 -0.03370519 -0.0295201 0.020813048 0.035736214 0.013893578 -0.00024538115
-0.008193087 0.0398631 -0.033184297 0.015625149 0.021281082 -0.013273418 0.012860656 -0.018176463
-0.03265904 0.0037009455 -0.023591485 0.022626992 -0.031321056 -0.016539555 -0.036381394 -0.0027627163
0.010625381 0.010262307 0.0212649 -0.030302286 0.0001321733 0.02700686 0.03150252 0.016301062
0.030511875 -0.0013033152 -0.025405373 -0.03774944 -0.03778448 0.004189756 -0.008511659 0.034871567
-0.01672427 -0.0073511414 -0.021116715 0.024509858 0.020208206 0.034760024 -0.023444518 -0.002795089
0.032755997 -0.019090068 -0.03746448 -0.038602546 -0.0071107633 -0.030718472 -0.026286066 0.018245194

bias f4 [64]
00000000: 5679 d4bc e821 203f 3bec 1fbd 398b 14bf
00000010: cebc 16bf 0843 f8bc 0007 fabb 9958 1a3f
00000020: b34e 203f b3a2 fdbc 3a20 153f 7883 893c
00000030: d852 8dbc 0611 bbbc 90a2 0ebd f339 b7bc
00000040: 55fe 12bf 2d3a 17bf f229 1abf aaa3 14bf
00000050: 6b44 193f e22a 29bd 7e21 bfbc ec76 22bd
00000060: 327f 0cbd 18e4 c7bc 30f7 01bd a2cc 10bf
00000070: c045 19bf ac48 1abf 90ea 00bb ec57 36bc
00000080: 009c 15ba 60b7 87bb f5c7 1f3f 1885 14bf
00000090: 4f42 1d3f d0b5 11bf 20b6 cdba 168c 25bd
000000a0: 36f2 a1bc 5044 18bf 949e 213f 1f9e 0dbd
000000b0: ecf1 0bbd fe5c eabc 93e6 17bf 6000 7c3c
000000c0: 2015 7abc 5bbd c4bc 5e08 243f 124b 123f
000000d0: 034d 20bf 41a6 1ebf 0ab9 16bf 9ec7 193f
000000e0: c064 42bc cb22 1e3f fe43 223f 5be9 8cbc
000000f0: 9402 20bd c9cf 1a3f f339 dabc 5b60 1bbf
-0.025936764 0.62551737 -0.039043646 -0.58024937 -0.58881843 -0.0303054 -0.007630229 0.6029144
0.62620085 -0.03096137 0.582523 0.016786322 -0.017251417 -0.022835266 -0.034823 -0.0223665
-0.5741933 -0.59073144 -0.60220253 -0.5806223 0.5987002 -0.04130066 -0.0233314 -0.039664194
-0.03430099 -0.024400756 -0.031729877 -0.56562245 -0.59872055 -0.6026714 -0.001967106 -0.011129361
-0.0005707145 -0.004141733 0.62414485 -0.58015585 0.61429304 -0.5691805 -0.0015694536 -0.0404168
-0.019768815 -0.59479237 0.63132596 -0.034574624 -0.03416626 -0.028608795 -0.59336203 0.015380949
-0.015263826 -0.024016073 0.6407527 0.571458 -0.6261751 -0.61972433 -0.588761 0.60070217
-0.011864841 0.6177184 0.63385 -0.017201116 -0.03906496 0.60473305 -0.02663896 -0.606939

weight f4 [128, 1024]
00000000: 98dd a2bb 843d f33c d20b ab3c 4078 043b
00000010: 5079 7d3c 6c41 d53c 7ae9 f0bc 5629 8ebc
00000020: 4cf3 23bc 0cd2 7f3c ecdd acbc 0035 0d39
00000030: d09e 8e3c 4097 1a3c 00ec 86bc bcaf fd3c
00000040: 2e11 823c e409 0e3c 9ebb 9cbc b87d acbb
00000050: e05e 86bb d88a 063c 7861 8cbc f0e6 9d3b
00000060: b807 403c 40ec 77ba c027 7e3a 7099 593c
00000070: 30d4 eebc 5e4e bbbc a064 323b f036 8bbc
00000080: d448 4ebc 041b 9a3c 1ecc c73c 90d9 0fbc
00000090: 149a 013c 3294 873c 8e24 94bc 3c99 a43c
000000a0: 66fc d13c 7097 ac3c a878 40bc 40e6 3dbb
000000b0: 70b2 b63c 2ced ef3c 38df ee3c a847 963b
000000c0: 48bc bebc 609b a53a 662a f7bc 0477 73bc
000000d0: 3eaa e93c c650 a23c 9081 c7bb 0c08 9cbc
000000e0: 82d8 bcbc e22b 873c 4a7a aa3c de98 e83c
000000f0: 78c8 763c e68a b23c 00b5 1039 68d6 aa3b
00000100: 6c83 d2bc 3cdc 253c 3020 73bc 0816 a13c
00000110: 3cdc bcbc f014 e3bb 6047 d73b e09d bebc
00000120: 4e74 9ebc 2a20 8bbc f8ea c73c e498 2d3c
00000130: f8fa 65bc 6e61 ad3c fce4 54bc b4b0 843c
00000140: c016 ddba 1eca e2bc fa32 d3bc 2024 0dbc
00000150: 1070 053b 645f 20bc e489 13bc aade 8e3c
00000160: d242 d8bc 203a abbc e0db e9bb 58f3 143c
00000170: 8025 26bc aab2 debc 9c46 0c3c c6eb cc3c
00000180: c45c 06bc c830 70bc 2894 883b 38fb b2bc
00000190: d820 7ebc c4f4 cdbc 54a8 01bc c237 953c
000001a0: 2616 adbc bc5f f43c 300e 9b3b c07c fa3c
000001b0: 12b0 e13c 7c28 e53c c83c 783c 781a 293c
000001c0: 9c2b 6a3c 00b7 aaba 3a30 c03c 00ca b13a
000001d0: 002d 2eba 208c f1bc 18fe a6bc 1090 db3c
000001e0: c0ac 7aba aa7e 92bc 7073 a83c 0060 1e38
000001f0: 505f 61bc 76f9 82bc 5830 2a3c 74c6 043c
00000200: d818 5b3c 706b b9bc b478 843c c429 a53c
00000210: 3cf2 bdbc c833 17bc bcef 0abc a23f ce3c
00000220: e8a8 69bc e0d9 3fbc b212 fd3c 5056 cc3c
00000230: 7ef8 db3c 08f6 3bbc e4b9 133c 2253 863c
00000240: 046b 63bc e29b d9bc 1cc1 b53c 8a26 d3bc
00000250: 48f4 7d3c a012 d13c 4caf 70bc 5414 27bc
00000260: 24fb ffbc 34fd 42bc b670 e53c 0461 503c
00000270: 40a8 3d3a 0025 8a39 c023 833c 583e 8abb
00000280: 06ff abbc 4c39 a73c ba0d 91bc a4c4 7b3c
00000290: 7cf9 e7bc 6013 d2bb 7227 80bc 24c0 f2bc
000002a0: 96a7 833c 8828 7a3c 1838 d9bc 8804 79bc
000002b0: 4282 e3bc 168e 97bc 80a5 8ebb 00aa 8a3a
000002c0: 64d0 c7bc f8c3 9cbb d8c7 3abc b8ab d53b
000002d0: 9079 9a3b 9af7 f7bc e8dd ba3b beec ffbc
000002e0: 7824 f33b 9c6f 9abc 64a5 ffbc 68d2 753c
000002f0: 74d2 35bc e807 113c e63d d13c fc5c 7abc
00000300: a0cd 70bb 4cb6 a33c 3031 cf3c 7841 65bc
00000310: cc84 c3bc 5c73 92bc 7ee2 c73c 122b b1bc
00000320: 1041 04bc 821d a63c ea37 95bc ae4c 973c
00000330: 76b4 d93c 90e9 153b 708f f6bc 54fd 42bc
00000340: e0f9 89ba 0e52 ec3c 2822 c53c c65d e03c
00000350: 14f7 fbbc 88f4 fd3b a02a 7dbc 2e04 cd3c
00000360: 18fd 163c 768c f0bc 647a b7bc 003f 713b
00000370: 80ee ebbc 1a6a a9bc 9027 20bc cc82 92bc
00000380: 16fa dc3c 5a46 a3bc b8d7 e13c e462 e4bc
00000390: 6c76 0bbc 6c17 fbbc b4b0 aebc 0c39 2cbc
000003a0: a023 94bb d81a 643c 2ab2 c53c fead c63c
000003b0: e674 d03c 089e b6bc acaf 0f3c f8f5 293c
000003c0: 2082 2c3c 481f 26bc 7cb6 4abc 2039 f8ba
000003d0: 74b5 5cbc dacd aa3c a0c9 f6bb 40ed d3ba
000003e0: 4e80 fe3c ae70 c6bc 5c6e cdbc f012 303c
000003f0: 00fb 0a3c d4c7 9fbc 7ac2 f93c f03b 28bc
-0.0049702637 0.029692419 0.02087966 0.0020213276 0.015470818 0.026032172 -0.029408205 -0.017353695
-0.010006737 0.015614044 -0.021101914 0.00013466552 0.017409712 0.009435475 -0.016469955 0.030967586
0.015877333 0.00866935 -0.019132432 -0.0052640103 -0.0041006655 0.008211814 -0.01713632 0.0048187897
0.01172059 -0.0009457506 0.0009695254 0.013281211 -0.029153913 -0.022864517 0.0027220622 -0.01699397
-0.012590606 0.01881171 0.024389323 -0.008779898 0.00791027 0.016550157 -0.018083837 0.0200926
0.025633048 0.021068305 -0.011747517 -0.002897635 0.022301883 0.029287897 0.029159173 0.004586179
-0.023283139 0.0012634806 -0.030171584 -0.0148599185 0.02852356 0.019813906 -0.006088443 -0.019046806
-0.023052458 0.016500417 0.020810265 0.028393205 0.015062444 0.021794748 0.00013800338 0.0052135475
-0.025697432 0.010123309 -0.014839217 0.019663826 -0.023054235 -0.006929986 0.006569788 -0.02326864
-0.019342568 -0.01698311 0.024404034 0.010595534 -0.014036886 0.021164622 -0.012994047 0.01619754
-0.0016867742 -0.027684268 -0.025781143 -0.00861457 0.0020360984 -0.009788368 -0.009005044 0.017440159
-0.02639905 -0.02090174 -0.007136807 0.009091221 -0.010140777 -0.027184803 0.008561756 0.02501477
-0.008200828 -0.014660068 0.004168052 -0.021848306 -0.01551076 -0.025141127 -0.007913668 0.018215064
-0.021128725 0.029830806 0.004731916 0.030577064 0.027549777 0.027973406 0.01515121 0.010321252
0.014292624 -0.0013024509 0.023460496 0.0013564229 -0.0006644279 -0.029485762 -0.020384833 0.026802093
-0.0009562485 -0.017882664 0.020562857 3.7759542e-05 -0.013755634 -0.015988093 0.010387503 0.008103956
0.013372622 -0.022634238 0.016170837 0.020161517 -0.023186795 -0.009228654 -0.008480009 0.025176827
-0.014261462 -0.01170966 0.030892704 0.0249435 0.026851889 -0.011472233 0.009016488 0.016397063
-0.013880495 -0.026563589 0.022186808 -0.025775213 0.015500136 0.025521576 -0.0146902315 -0.010197718
-0.031247683 -0.011901189 0.028007846 0.012718443 0.0007234849 0.00026348978 0.016008258 -0.0042188577
-0.020995628 0.020413063 -0.01770674 0.015366707 -0.028317206 -0.006411001 -0.015643809 -0.029632635
0.016071122 0.015268452 -0.026516005 -0.015198834 -0.027772073 -0.018500369 -0.004353225 0.0010579228
-0.02439136 -0.0047841035 -0.0114001855 0.0065207146 0.0047141984 -0.030269433 0.005702723 -0.031240817
0.007420119 -0.018852048 -0.031206794 0.015003778 -0.011097539 0.008851983 0.02554221 -0.015280958
-0.0036743656 0.019984387 0.02529201 -0.01399266 -0.023867033 -0.017877273 0.024399992 -0.021626983
-0.008072153 0.020277742 -0.018215138 0.01846918 0.026575308 0.002287481 -0.030097693 -0.011901218
-0.0010526739 0.02884772 0.024064139 0.027388465 -0.030757464 0.0077500977 -0.015452057 0.025026407
0.009215616 -0.029363852 -0.022397228 0.0036811233 -0.02880025 -0.020680476 -0.009775057 -0.017884634
0.026974719 -0.019931007 0.027568683 -0.027879186 -0.008512121 -0.030650817 -0.021324493 -0.010511648
-0.0045208484 0.013922416 0.024132807 0.024252888 0.025446367 -0.022292152 0.008769911 0.010373585
0.010529071 -0.010139294 -0.012372609 -0.0018937923 -0.013470996 0.02085011 -0.00753136 -0.0016168728
0.03106704 -0.024223652 -0.025077038 0.010746703 0.008482695 -0.019504465 0.030488241 -0.010268196

bias f4 [128]
00000000: 60c8 b2ba a1bd 16bf 004c 12bf dda8 1d3f
00000010: 9a07 96bc 6040 14bf a897 37bc eeca 11bf
00000020: 6808 b6bc 385f 1e3f 47d1 1d3f 1421 92bc
00000030: c92f 203f 9c53 dfbc 2d95 1a3f 5a6c a0bc
00000040: c7fc 1d3f 4e47 bdbc 0842 1b3f e51c 183f
00000050: 1895 d4bc 5d63 1c3f 1c0f 66bc 7a43 f7bc
00000060: 715e 19bf dd03 1c3f 3e76 1c3f 43d3 1f3f
00000070: 56f9 fdbc 1808 1ebf 92e0 90bc 2378 12bf
00000080: 4569 19bf 2492 9dbc c858 6ebc dc4d 5ebc
00000090: 4a01 abbc 22d0 febc 00ec c038 8491 5a3c
000000a0: cc61 203f ce9e 1cbf 0025 73ba 59c2 18bf
000000b0: b292 8dbc bc96 dfbc f05b 293b 5504 203f
000000c0: 97d3 15bf dc7d 1a3f 4880 e7bc c9b5 14bf
000000d0: 687a 12bf a75b 1b3f 3c93 b6bc c00e 213f
000000e0: 8177 213f cffa 12bf c841 dabc a4dc 2bbc
000000f0: c009 13bf ef93 213f a4cc dabc e0d3 bfba
00000100: c5b3 1e3f bc97 96bc b7dd 1a3f 0ea7 16bf
00000110: 7821 ba3b 10ca 763b 58bf 9ebb 46e2 a0bc
00000120: b945 1f3f d600 ecbc 401a ee3b 3bdb 12bf
00000130: a0b4 1abf a020 7abc 9443 213f 4ed4 11bf
00000140: e2d9 12bf ae30 203f c871 89bb d0eb 85bc
00000150: 7c71 f5bc ead9 1c3f d4c7 b0bc 80f5 59ba
00000160: 24ff 12bf bf7a 1d3f 92bc 9fbc a320 1d3f
00000170: 5c36 1d3f 5298 86bc 649a c7bc 7caf 8dbc
00000180: 7883 a93b 3c2a 1fbc 689f 9bbc be31 99bc
00000190: e383 19bf 6dd8 11bf ea5f bdbc a6f6 17bf
000001a0: 1adf 1c3f 0053 e0bb 805d 9f3a a51a 13bf
000001b0: ccb2 183f de20 16bf 2258 1e3f 086c c9bb
000001c0: c052 753b 3d13 1bbf 00f8 01b9 91d4 14bf
000001d0: d8d8 de3b 5ea4 16bf 56fd 88bc 5066 72bb
000001e0: c897 d1bc 8cc8 1d3f de46 dbbc 7ebc 13bf
000001f0: 1c01 763c c0ef bbba 1250 e4bc 3b2f 213f
-0.0013640039 -0.588831 -0.57147217 0.6158579 -0.018314172 -0.5791073 -0.011205591 -0.5695027
-0.022220805 0.6186404 0.61647457 -0.017838039 0.62572914 -0.027261548 0.60383874 -0.019582916
0.6171383 -0.02310529 0.6064763 0.5941909 -0.02595 0.61089116 -0.014041688 -0.030183543
-0.5990973 0.60943395 0.61117923 0.62431735 -0.031002682 -0.617311 -0.017685208 -0.57214564
-0.59926254 -0.019234724 -0.014547534 -0.013568368 -0.020874638 -0.031105105 9.199232e-05 0.013340358
0.62649226 -0.61179817 -0.0009275228 -0.5967155 -0.017281864 -0.027293555 0.0025842153 0.6250661
-0.58525985 0.60348296 -0.028259411 -0.5808988 -0.5721803 0.60686725 -0.022287004 0.6291313
0.63072973 -0.57413954 -0.026642695 -0.010489617 -0.5743675 0.63116354 -0.026708908 -0.0014635287
0.61993057 -0.0183829 0.6049456 -0.58848655 0.0056802593 0.003765706 -0.0048445873 -0.019639146
0.62215763 -0.028808992 0.007266313 -0.5736577 -0.6043186 -0.0152665675 0.6299374 -0.56964576
-0.5736371 0.6257428 -0.004194472 -0.016347796 -0.02996134 0.6127001 -0.02157966 -0.00083144754
-0.57420564 0.6151542 -0.019499097 0.61377925 0.6141107 -0.016430054 -0.024365611 -0.017295592
0.005173143 -0.009714659 -0.01899691 -0.018700477 -0.5996687 -0.56970865 -0.023117024 -0.5936073
0.61277926 -0.006845832 0.0012158602 -0.5746253 0.5964782 -0.586439 0.6185323 -0.0061469115
0.0037433356 -0.6057623 -0.00012394786 -0.5813685 0.006800752 -0.58844554 -0.016722362 -0.0036987253
-0.02558507 0.61634135 -0.02676719 -0.5770949 0.015014913 -0.0014338419 -0.027870212 0.6296269
