Output/ant_bee_best_score0.551.pt (torch, 802659 bytes, 21 tensors)

weight f4 [6, 3, 3, 3]
0.4062869 0.47527364 0.4347453 0.52096295 0.5383359 0.5767141 0.6356224 0.594903
0.4808165 0.40426156 0.678905 0.76476145 0.5644776 0.62567407 0.72890276 0.7014206
0.48548922 0.6099277 0.65361243 0.6994807 0.46746883 0.53148425 0.72448283 0.6996104
0.7736391 0.76691175 0.45975125 0.64475477 0.6621193 0.39851904 0.22855702 -0.015832623
-0.3558544 0.3688398 0.3317246 0.4091158 0.45940313 0.50348616 0.55537355 0.6131688
0.16118658 -0.20406412 0.32828575 0.42983598 0.5869188 0.54035485 0.71124166 0.2518487
-0.17975 -0.66043943 -0.41244707 0.04834186 -0.37068194 0.34326234 0.57872725 0.7581908
0.7794073 0.42297807 0.41045567 0.78040546 0.6430875 0.483393 0.6344546 0.61847407
0.5129439 0.6036681 0.4210716 0.64010584 0.7195273 0.46633705 0.6680479 0.54805785
0.60201705 0.4960999 0.67734617 0.5733795 0.6422231 0.6711129 0.5913267 0.7463455
0.6017765 0.6019067 0.6637457 0.63500607 0.48969364 0.42859626 0.43478537 0.45779675
0.47772762 0.6739401 0.4248927 0.60679454 0.6581687 0.75102127 0.5649164 0.61644804
0.7821486 0.73302925 0.62432814 0.6409534 0.72961736 0.62473744 0.74778765 0.7751463
0.40612563 0.50941354 0.7060219 0.67824674 -0.5969578 -0.5833361 -0.5237036 -0.50452304
-0.41807592 -0.77020735 -0.6046414 -0.6692965 -0.64272344 -0.59598505 -0.7229475 -0.60745347
-0.48470002 -0.6283699 -0.6552685 -0.5774392 -0.5146107 -0.53616357 -0.6968465 -0.4071047
-0.57798237 -0.6183823 -0.5541585 -0.58246773 -0.44793567 -0.67186874 -0.5808768 -0.44117466
-0.607852 -0.5276912 -0.66405535 -0.6742019 -0.6260538 -0.57604545 -0.40560967 -0.42727995
-0.54502845 -0.40194765 -0.77291834 -0.5857188 -0.6907279 -0.53965694 -0.41278484 -0.542716
-0.42390195 -0.6089757 -0.37538096 -0.5329504 -0.30985826 0.57633877 -0.45500728 -0.63727105
0.23226355 -0.62784225
00000000: d604 d03e 1157 f33e f096 de3e d45d 053f
00000010: 62d0 093f 89a3 133f 26b8 223f 904b 183f
00000020: 952d f63e 5ffb ce3e b8cc 2d3f 68c7 433f
00000030: 9b81 103f 2d2c 203f 5f99 3a3f 4d90 333f
00000040: 0b92 f83e 3924 1c3f 2553 273f 2b11 333f
00000050: 1358 ef3e 5a0f 083f b577 393f ab19 333f
00000060: 360d 463f 5454 443f 8464 eb3e a60e 253f
00000070: a780 293f b00a cc3e da0a 6a3e 6bb3 81bc
00000080: 8c32 b6be 92d8 bc3e cfd7 a93e a077 d13e
00000090: e336 eb3e 78e4 003f f62c 0e3f a1f8 1c3f
000000a0: 180e 253e 2ff6 50be 1215 a83e 7613 dc3e
000000b0: 4f40 163f b254 0a3f ef13 363f 50f2 803e
000000c0: 6210 38be 8f12 29bf 432c d3be 1d02 463d
000000d0: 06ca bdbe 15c0 af3e 7827 143f cb18 423f
000000e0: 3d87 473f 9590 d83e 3f27 d23e a7c8 473f
000000f0: 62a1 243f 4a7f f73e 9e6b 223f 5154 1e3f
00000100: 4b50 033f fe89 1a3f b296 d73e fadd 233f
00000110: f132 383f bbc3 ee3e 3005 2b3f 854d 0c3f
00000120: ca1d 1a3f ce00 fe3e 8f66 2d3f 00c9 123f
00000130: bc68 243f 0ece 2b3f 3061 173f 8010 3f3f
00000140: 060e 1a3f 8f16 1a3f 3deb 293f c28f 223f
00000150: 20b9 fa3e f870 db3e 309c de3e 5664 ea3e
00000160: b798 f43e 5787 2c3f 898b d93e e356 1b3f
00000170: be7d 283f ee42 403f 5c9e 103f 8acf 1d3f
00000180: e43a 483f cea7 3b3f f8d3 1f3f 8615 243f
00000190: 34c8 3a3f cbee 1f3f 036f 3f3f fd6f 463f
000001a0: b3ef cf3e ed68 023f dabd 343f 94a1 2d3f
000001b0: 3ad2 18bf 8455 15bf 7011 06bf 6c28 01bf
000001c0: 0c0e d6be 4f2c 45bf c7c9 1abf 0457 2bbf
000001d0: 8689 24bf 7a92 18bf 1613 39bf 1282 1bbf
000001e0: 9a2a f8be dadc 20bf adbf 27bf 0ed3 13bf
000001f0: 87bd 03bf 0442 09bf 8864 32bf 0770 d0be
00000200: a7f6 13bf 4d4e 1ebf 55dd 0dbf 9b1c 15bf
00000210: d357 e5be 97ff 2bbf 58b4 14bf a5e1 e1be
00000220: 309c 1bbf c516 07bf 88ff 29bf 7f98 2cbf
00000230: 1045 20bf b777 13bf 12ac cfbe 70c4 dabe
00000240: fc86 0bbf 15cc cdbe fadd 45bf abf1 15bf
00000250: 8bd3 30bf f526 0abf 8958 d3be 70ef 0abf
00000260: ad09 d9be d5e5 1bbf ef31 c0be 706f 08bf
00000270: bea5 9ebe f08a 133f b7f6 e8be 3224 23bf
00000280: 7fd6 6d3e 45ba 20bf

bias f4 [6]
0.72335297 0.64246815 0.6573698 0.52754945 -0.4481101 -0.5482225
00000000: a92d 393f cb78 243f 6349 283f 7b0d 073f
00000010: b06e e5be 4f58 0cbf

weight f4 [8, 6, 3, 3]
0.59351045 0.47241068 0.7261064 0.6907849 0.53407544 0.7273248 0.6667034 0.49996492
0.63911396 0.5748339 0.48356897 0.33970466 0.5801815 0.5630037 0.31343085 0.19996513
0.17743948 -0.35076365 0.72398067 0.5595821 0.66885 0.52747387 0.6436828 0.6669288
0.53538114 0.71157223 0.624212 0.65013385 0.63591343 0.67277646 0.71852034 0.48422286
0.668714 0.66992813 0.5948396 0.49379215 0.619558 0.64427966 0.5210273 0.5139656
0.5444983 0.60089153 0.46666592 0.4887875 0.4890196 0.57338125 0.731897 0.5750935
0.4649601 0.688878 0.5623029 0.72808975 0.49098134 0.6219456 -0.007906157 0.1465696
-0.65645885 0.6016783 0.6488263 0.5884032 0.45336568 0.58983874 0.49452943 0.5303299
0.40550905 0.5646615 0.31435725 -0.43067414 0.23105723 -0.6687155 -0.5974514 -0.6721271
-0.69878125 -0.69428307 -0.6413221 -0.6308697 -0.6243311 -0.5447335 -0.5901672 -0.6861709
-0.6540972 -0.7105555 -0.6080115 -0.5166297 -0.5789767 -0.6511514 -0.5229964 0.6474301
0.6191748 0.6218319 -0.51665235 -0.54615283 -0.61416656 -0.62409574 -0.5660353 -0.49964276
-0.46259218 -0.49959233 -0.64390093 -0.6491558 -0.5177341 -0.5724784 -0.72990376 -0.4907287
-0.65344685 -0.53947777 -0.562195 -0.6241315 0.5165491 0.44942722 0.62339556 0.42898336
0.40367985 0.42027298 0.35467285 0.3213849 0.4408673 0.66537315 0.48561317 0.6092007
0.64106894 0.43311298 0.59017295 0.5947115 0.5872529 0.45032954 0.49709925 0.5363951
0.4493536 0.39836827 0.42280123 -0.18805239 0.31995183 0.36046496 0.44745466 0.54269636
0.39941895 0.5756943 0.42779848 0.5295406 0.3931349 0.36873734 0.4280855 0.3459835
0.6316784 0.50210464 0.5518892 0.6108323 0.4233998 0.48797843 0.50602114 0.61567986
0.43345293 0.6109499 0.5825607 0.62724113 0.45818582 0.49095106 0.5034956 0.6147648
0.4888987 0.40440312 -0.66182846 -0.5999707 -0.5826698 -0.68959415 -0.59697396 -0.649535
-0.6469964 -0.4650001 -0.6622746 -0.45026523 -0.6511592 -0.49053064 -0.66455835 -0.46209517
-0.47771856 -0.66968167 -0.70093095 -0.53029543 -0.59518737 -0.6259636 -0.47088736 -0.5097066
-0.6105433 -0.5497257 -0.7150718 -0.5300038 -0.5534349 0.5860431 0.5856007 0.7006623
-0.44099972 -0.3230645 -0.5479677 -0.5750266 -0.68023616 -0.48554674 -0.58675545 -0.5611607
-0.57607764 -0.70326257 -0.6422281 -0.52802515 -0.63859403 -0.52161145 -0.572587 -0.48257777
-0.70124435 -0.46888444 -0.4625054 -0.5035228 -0.5904141 -0.4742835 -0.63916904 -0.6849029
0.66895884 0.674014 0.65343434 0.70947284 0.5279162 0.68048924 0.6421689 0.70371544
0.4868281 0.58456373 0.45429248 0.46352223 0.38828117 0.55120933 0.54743785 -0.29462713
0.34956458 0.6423077 0.54876417 0.72143686 0.64915514 0.62831074 0.72836024 0.7301427
0.65074235 0.69557494 0.69056547 0.6356058 0.45207214 0.6786829 0.55303574 0.46206024
0.5277519 0.70873713 0.54478496 0.5909168 0.61372036 0.7178842 0.46851116 0.50440377
00000000: 4df0 173f d0df f13e 1ce2 393f 47d7 303f
00000010: 2bb9 083f f531 3a3f 13ad 2a3f 67fb ff3e
00000020: f99c 233f 5128 133f 5a96 f73e c5ed ad3e
00000030: c686 143f 0321 103f 027a a03e a9c3 4c3e
00000040: b2b2 353e 4b97 b3be cc56 393f c640 0f3f
00000050: c139 2b3f 8708 073f 65c8 243f d9bb 2a3f
00000060: bd0e 093f 9929 363f 5ccc 1f3f 2c6f 263f
00000070: 39cb 223f 143b 2c3f f3f0 373f 0fec f73e
00000080: d730 2b3f 6980 2b3f 6847 183f 53d2 fc3e
00000090: 5a9b 1e3f 83ef 243f 0c62 053f 4093 033f
000000a0: 3e64 0b3f 07d4 193f d6ee ee3e 5b42 fa3e
000000b0: c760 fa3e 1dc9 123f 9a5d 3b3f 5439 133f
000000c0: 400f ee3e 4f5a 303f 15f3 0f3f 1764 3a3f
000000d0: e861 fb3e d437 1f3f d388 01bc 5716 163e
000000e0: b00d 28bf 9707 1a3f 7b19 263f 98a1 163f
000000f0: 8c1f e83e acff 163f f632 fd3e b3c3 073f
00000100: e29e cf3e a88d 103f 6ff3 a03e 5281 dcbe
00000110: 449a 6c3e f030 2bbf 93f2 18bf 8610 2cbf
00000120: 54e3 32bf 89bc 31bf af2d 24bf ad80 21bf
00000130: 2ad4 1fbf a873 0bbf 3315 17bf e5a8 2fbf
00000140: ea72 27bf f7e6 35bf a4a6 1bbf d841 04bf
00000150: d137 14bf dcb1 26bf 18e3 05bf fbbd 253f
00000160: 3d82 1e3f 6030 1f3f 5443 04bf acd0 0bbf
00000170: 053a 1dbf bdc4 1fbf b0e7 10bf 2dd1 ffbe
00000180: e2d8 ecbe 91ca ffbe b1d6 24bf 132f 26bf
00000190: 398a 04bf f28d 12bf f9da 3abf cb40 fbbe
000001a0: 4b48 27bf 371b 0abf 03ec 0fbf 15c7 1fbf
000001b0: 903c 043f 531b e63e da96 1f3f b5a3 db3e
000001c0: 20af ce3e 052e d73e ae97 b53e 908c a43e
000001d0: 5cb9 e13e e555 2a3f 4aa2 f83e 94f4 1b3f
000001e0: 181d 243f fcc0 dd3e 9315 173f 033f 183f
000001f0: 3556 163f 9891 e63e cb83 fe3e 3051 093f
00000200: ad11 e63e edf6 cb3e 6779 d83e ce90 40be
00000210: bad0 a33e dd8e b83e c718 e53e 26ee 0a3f
00000220: a480 cc3e b460 133f 6708 db3e f98f 073f
00000230: fa48 c93e 24cb bc3e 062e db3e c024 b13e
00000240: adb5 213f ee89 003f 9c48 0d3f 815f 1c3f
00000250: dcc7 d83e 4fd8 f93e 9a8a 013f 329d 1d3f
00000260: 8bed dd3e 3667 1c3f b322 153f e092 203f
00000270: 5597 ea3e f05d fb3e 16e5 003f 3a61 1d3f
00000280: ee50 fa3e ed0d cf3e 976d 29bf ae97 19bf
00000290: d929 15bf 3e89 30bf 49d3 18bf ed47 26bf
000002a0: 8ea1 25bf 7e14 eebe d48a 29bf 2a89 e6be
000002b0: 5fb2 26bf d526 fbbe 7f20 2abf bd97 ecbe
000002c0: 8797 f4be 4270 2bbf 3670 33bf 71c1 07bf
000002d0: 335e 18bf 273f 20bf 2618 f1be 227c 02bf
000002e0: 914c 1cbf d3ba 0cbf f20e 37bf 54ae 07bf
000002f0: e9ad 0dbf ec06 163f ede9 153f 9b5e 333f
00000300: b7ca e1be b668 a5be 9c47 0cbf f134 13bf
00000310: f523 2ebf 9599 f8be 9b35 16bf 3aa8 0fbf
00000320: d379 13bf 0409 34bf 1069 24bf a82c 07bf
00000330: e67a 23bf 5488 05bf 1095 12bf 6f14 f7be
00000340: c084 33bf 9f11 f0be 82cd ecbe dfe6 00bf
00000350: 6125 17bf 49d5 f2be 95a0 23bf cc55 2fbf
00000360: e340 2b3f 2e8c 2c3f 7947 273f 03a0 353f
00000370: 8425 073f 8b34 2e3f 2e65 243f b226 343f
00000380: 8841 f93e f8a5 153f 0699 e83e c952 ed3e
00000390: cacc c63e 0e1c 0d3f e324 0c3f 5ed9 96be
000003a0: 21fa b23e 476e 243f cf7b 0c3f 16b0 383f
000003b0: 082f 263f f9d8 203f d175 3a3f a2ea 3a3f
000003c0: 0d97 263f 3311 323f e6c8 303f 10b7 223f
000003d0: 0076 e73e 2abe 2d3f c093 0d3f 2993 ec3e
000003e0: c01a 073f cc6f 353f 0777 0b3f 5346 173f
000003f0: c71c 1d3f 42c7 373f b2e0 ef3e 9b20 013f

bias f4 [8]
0.60180795 -0.6203474 0.5163454 -0.5028053 0.67138004 -0.67246324 -0.44156545 -0.6334069
00000000: 1610 1a3f 16cf 1ebf 362f 043f d9b7 00bf
00000010: 90df 2b3f 8d26 2cbf de14 e2be f426 22bf

weight f4 [16, 8, 3, 3]
-0.41012087 0.5196454 0.4823866 -0.54765815 0.515225 0.39265934 -0.62930024 -0.33411297
-0.4998605 -0.5471446 -0.5656553 -0.51277214 -0.5088563 -0.55338424 -0.46941832 -0.47284588
-0.4906742 -0.6164317 0.30691195 0.33045557 0.35081664 -0.19277273 0.3720389 0.3282232
0.02827161 0.5230132 0.2407113 -0.59990466 -0.5312774 -0.50034714 -0.5448962 -0.5174909
-0.6842318 -0.49166495 -0.56227577 -0.6965121 -0.6076052 -0.55718803 -0.50788 -0.51458025
-0.57993495 -0.47627464 -0.6833971 -0.5896048 -0.5443535 0.16662414 0.15114173 0.32936648
-0.23499088 0.23383592 0.3280822 -0.2584911 -0.19549708 0.12793621 0.1015809 0.25219795
0.020721799 0.0885953 0.08392988 0.17683972 0.07767357 -0.0085337125 -0.06551687 0.38214853
-0.56518155 0.38456443 -0.42971462 -0.6549445 -0.41312143 -0.5241776 -0.394547 -0.5105766
0.57164 0.5950298 0.48989487 0.5629366 0.633185 0.68668 0.69740856 0.595301
0.48144636 0.6453438 0.6994119 0.54831874 0.6651235 0.5456078 0.5592089 0.47944704
0.6264284 0.6708929 0.41544503 0.11650407 -0.3150018 -0.046415597 0.19151667 -0.23886989
-0.36078167 0.24845105 0.0887753 0.57581985 0.5532854 0.5300272 0.56947136 0.537272
0.6021441 0.520496 0.6980785 0.5770409 0.5530582 0.6845929 0.68165815 0.69747156
0.6734066 0.5044044 0.71331185 0.7056527 0.6368095 0.52060026 0.4166773 -0.1697816
0.5025127 0.3287142 0.42801827 0.4172383 0.38355103 0.37450042 0.2834955 0.4203595
0.16968143 0.1601858 0.071070425 -0.02919621 -0.21959546 -0.021695463 0.017561385 0.5444964
0.5791634 0.5309304 0.560479 0.46232197 0.45792332 0.03451063 -0.39088106 0.5422914
0.012417577 -0.045567364 -0.02496314 -0.10225331 0.10399329 -0.034923725 0.11344952 -0.05924293
-0.035773292 0.099682145 0.017507441 0.1174865 0.06516633 0.00060398877 0.03466461 -0.10344824
0.04827193 -0.09275398 0.07085448 0.08057857 -0.04247822 0.028168954 -0.0074909255 -0.016151614
-0.033291064 0.008176573 0.084172525 0.02830688 -0.11342991 -0.05276666 0.05431416 0.03295093
0.030172817 0.023119293 -0.04516851 -0.026240349 -0.07283154 -0.04327204 0.025044493 -0.009881653
0.022587992 -0.07659027 -0.0020369887 -0.06272458 0.05402779 -0.04984112 0.09892159 0.079097636
0.06957392 -0.03396436 -0.116482556 0.058897607 -0.10826719 -0.06523221 -0.04411778 0.08397614
0.05262644 -0.05076141 0.0059445053 -0.0033536926 -0.02236677 -0.09460546 -0.009317435 0.07834146
-0.035604 -0.012769803 0.084538706 -0.078060895 -0.054060526 -0.05687036 0.04064461 0.060357817
0.5746424 0.68180543 0.5368822 0.60634327 0.6711175 0.65802723 0.6898098 0.5442265
0.7020712 0.5640352 0.71046764 0.61862886 0.6062088 0.6845457 0.5594643 0.4806612
0.6116701 0.5164482 -0.1469072 0.17716436 0.32024834 -0.21294655 -0.06436001 0.050717518
-0.18615906 -0.3496141 -0.26706716 0.5281262 0.51845217 0.5422334 0.56604624 0.65785635
0.5646492 0.6459675 0.6482732 0.6134856 0.49692756 0.51785266 0.4835336 0.59939665
00000000: 5dfb d1be 7b07 053f 60fb f63e 5333 0cbf
00000010: c9e5 033f a50a c93e d219 21bf db10 abbe
00000020: b7ed ffbe ab11 0cbf c9ce 10bf 0945 03bf
00000030: 6844 02bf 97aa 0dbf 9957 f0be db18 f2be
00000040: a639 fbbe 78ce 1dbf 9023 9d3e 7931 a93e
00000050: 3d9e b33e 3766 45be e27b be3e df0c a83e
00000060: dd99 e73c 31e4 053f 067d 763e 5a93 19bf
00000070: cc01 08bf c016 00bf 517e 0bbf 497a 04bf
00000080: d129 2fbf 82bb fbbe 4ef1 0fbf 9e4e 32bf
00000090: 048c 1bbf e0a3 0ebf 6c04 02bf 88bb 03bf
000000a0: 9e76 14bf 45da f3be 1df3 2ebf 57f0 16bf
000000b0: c05a 0bbf 859f 2a3e e6c4 1a3e b9a2 a83e
000000c0: 73a1 70be af72 6f3e 64fa a73e f258 84be
000000d0: 6330 48be b601 033e a609 d03d 1720 813e
000000e0: c3c0 a93c 7471 b53d 6ee3 ab3d 7915 353e
000000f0: 5213 9f3d fcd0 0bbc b52d 86bd f9a8 c33e
00000100: bdaf 10bf a1e5 c43e 8e03 dcbe 71aa 27bf
00000110: a784 d3be 8130 06bf 1002 cabe 26b5 02bf
00000120: 0057 123f df53 183f 80d3 fa3e 9d1c 103f
00000130: 6a18 223f 43ca 2f3f 5e89 323f a565 183f
00000140: 2380 f63e 4035 253f a90c 333f 9e5e 0c3f
00000150: 8945 2a3f f4ac 0b3f 5128 0f3f 157a f53e
00000160: 9d5d 203f a3bf 2b3f 36b5 d43e b099 ee3d
00000170: ea47 a1be 481e 3ebd f21c 443e 4f9a 74be
00000180: 60b8 b8be f469 7e3e d3cf b53d ee68 133f
00000190: 1da4 0d3f ddaf 073f e0c8 113f a88a 093f
000001a0: 1e26 1a3f 3a3f 053f 46b5 323f f4b8 133f
000001b0: 3995 0d3f 7b41 2f3f 2681 2e3f 7f8d 323f
000001c0: 6064 2c3f a620 013f 9b9b 363f a8a5 343f
000001d0: f305 233f 0f46 053f ba56 d53e 3adb 2dbe
000001e0: aca4 003f 3a4d a83e 3625 db3e 42a0 d53e
000001f0: cd60 c43e 85be bf3e 5226 913e 5c39 d73e
00000200: f8c0 2d3e bf07 243e 5f8d 913d e42c efbc
00000210: a2dd 60be afba b1bc e5dc 8f3c 1e64 0b3f
00000220: 0d44 143f 0eeb 073f 8d7b 0f3f 77b5 ec3e
00000230: ed74 ea3e 055b 0d3d 9021 c8be 9cd3 0a3f
00000240: 1873 4b3c d8a4 3abd 807f ccbc 2f6a d1bd
00000250: 6ffa d43d 2e0c 0fbd 3958 e83d b7a8 72bd
00000260: 0487 12bd 2726 cc3d c46b 8f3c c39c f03d
00000270: ed75 853d 0055 1e3a 7afc 0d3d acdc d3bd
00000280: cab8 453d ccf5 bdbd 271c 913d 6106 a53d
00000290: a4fd 2dbd 94c2 e63c 7076 f5bb 6450 84bc
000002a0: 365c 08bd 08f7 053c a562 ac3d d4e3 e73c
000002b0: f14d e8bd da21 58bd 8678 5e3d 8ef7 063d
000002c0: fc2c f73c ac64 bd3c 9e02 39bd 00f6 d6bc
000002d0: b428 95bd 063e 31bd 1c2a cd3c a8e6 21bc
000002e0: 740a b93c 5cdb 9cbd 007f 05bb bf75 80bd
000002f0: 3e4c 5d3d 3426 4cbd 6797 ca3d f1fd a13d
00000300: c57c 8e3d 361e 0bbd 688e eebd 9e3e 713d
00000310: 30bb ddbd 7798 85bd d8b4 34bd affb ab3d
00000320: d28e 573d 32eb 4fbd 20ca c23b a0c9 5bbb
00000330: 843a b7bc 82c0 c1bd 28a8 18bc 7d71 a03d
00000340: 80d5 11bd 7038 51bc a122 ad3d 64de 9fbd
00000350: 926e 5dbd e5f0 68bd f67a 263d c239 773d
00000360: c41b 133f cd8a 2e3f 1d71 093f 5039 1b3f
00000370: 5bce 2b3f 7974 283f 6097 303f 6e52 0b3f
00000380: f0ba 333f 9c64 103f 35e1 353f 765e 1e3f
00000390: 8030 1b3f 633e 2f3f 0d39 0f3f 3a19 f63e
000003a0: 6996 1c3f f335 043f d76e 16be 936a 353e
000003b0: 97f7 a33e a90e 5abe 2ecf 83bd 2cbd 4f3d
000003c0: 7ba0 3ebe 9f00 b3be 07bd 88be 4733 073f
000003d0: 48b9 043f cfcf 0a3f 68e8 103f 4669 283f
000003e0: da8c 103f 205e 253f 3cf5 253f 640d 1d3f
000003f0: 4a6d fe3e fe91 043f b791 f73e 0f72 193f

bias f4 [16]
-0.53248745 0.68499917 -0.112935625 0.6883385 -0.11485854 -0.066035345 -0.69212115 -0.48084608
-0.07973546 0.6004857 -0.11550351 0.65933675 -0.5417803 -0.5719658 0.1726795 0.5898022
00000000: 1951 08bf 1b5c 2f3f cb4a e7bd f436 303f
00000010: f43a ebbd 8a3d 87bd da2e 31bf 7531 f6be
00000020: 584c a3bd 6eb9 193f 1b8d ecbd 4bca 283f
00000030: 1db2 0abf 5a6c 12bf e5d2 303e 47fd 163f

weight f4 [32, 16, 3, 3]
0.67069167 0.6728637 0.6444398 0.51849467 0.54003793 0.6480498 0.6558499 0.65937805
0.60100645 0.5993267 0.5528406 0.5125432 0.60457826 0.64866054 0.57928616 0.6256686
0.5481177 0.6226204 0.06154082 0.037066698 0.03477657 0.030985802 0.0005553067 0.07724526
-0.009624042 -0.070371464 -0.04141128 0.5415966 0.55414027 -0.5868931 0.54543054 0.6285297
0.49071303 0.48174673 0.49464965 0.16184865 0.08228109 -0.014681786 -0.042160492 -0.014869489
0.018545002 -0.06782886 0.0398814 -0.015990943 0.012395568 0.013644762 0.029625975 0.008150868
-0.039322417 0.04705579 -0.017769523 -0.055534195 0.053878255 -0.047922593 -0.44489363 -0.28920045
0.16982035 0.10927705 0.19621517 -0.24024327 0.2855784 0.26594725 -0.388989 0.527409
0.5552836 0.5077905 0.5983087 0.66679925 0.6440812 0.5063426 0.54275113 0.59316045
-0.08319433 0.026825123 0.027994663 0.03739825 0.052352317 -0.0026750267 -0.05678753 0.079240896
-0.023108773 0.54603183 0.64654064 0.65053844 0.57824993 0.5588953 0.5712644 0.6102598
0.53152627 0.6443692 0.08079427 0.056590505 -0.07772303 -0.011976898 -0.07810812 -0.024712991
0.067130394 0.028169043 -0.072953284 0.6217538 0.5807173 0.64579517 0.53534013 0.60947806
0.5788826 0.5105103 0.5889273 0.65718985 0.6216211 0.52975655 0.60626453 0.57587546
0.53379536 0.63474786 0.64648545 0.519896 0.6571433 0.445722 0.51855266 0.5352271
0.44836575 0.5995256 0.5508783 0.5423184 0.58241624 0.6193865 -0.06259468 -0.075524926
-0.00575047 0.073905 0.012821563 0.045956675 0.015766107 0.046405457 -0.03626972 0.5661843
0.5532112 0.51742595 0.5854837 0.64606494 0.5008666 0.5249928 0.66709137 0.53619045
-0.083089024 -0.083073676 -0.07871151 0.06786863 0.032156385 0.024055682 -0.028180122 -0.0389795
0.041223973 0.06280587 0.061464094 -0.08161195 -0.0040021017 0.07926614 -0.07041375 -0.030907989
-0.065560505 0.07430213 -0.0066631436 -0.031202726 0.022714116 -0.040439337 -0.0034669712 -0.0035988912
-0.0012081638 0.006058745 -0.03389802 -0.014158338 -0.0473413 0.037333302 0.049467884 0.015937082
0.044842698 -0.04115521 0.014040597 0.039916746 -0.071156524 -0.0472206 0.04999075 -0.004793547
-0.070920244 -0.067626715 0.015634775 0.057108276 0.0026853457 0.046973296 -0.0101080835 0.0089409575
-0.04022324 -0.061582528 -0.029186934 -0.040557683 -0.011920594 -0.0052182153 0.048114397 0.021496862
0.033434033 -0.035823744 0.06509692 0.0498086 0.05895693 0.03154529 -0.02920122 -0.07736956
-0.050786298 0.07155905 -0.02943077 -0.013063371 0.027481891 0.0705403 -0.04387953 -0.047904573
0.05752171 0.03447748 0.0121107325 -0.029555075 -0.029261798 -0.06670742 0.07931969 0.022029698
0.004363954 -0.06471008 -0.015855424 -0.028893203 0.03286022 0.043725558 -0.014182888 -0.035582185
-0.044996362 0.013128996 -0.006428547 -0.039205573 0.06624768 -0.023623437 0.04205712 -0.07645955
-0.010654844 -0.079149455 0.05487544 0.067817114 0.0012774393 -0.046771966 -0.018045448 -0.01863242
0.0794977 -0.07848196 -0.041858297 -0.06446385 -0.0720586 -0.036328983 0.03362611 -0.040190093
00000000: 73b2 2b3f cc40 2c3f 02fa 243f 11bc 043f
00000010: ed3f 0a3f 97e6 253f c7e5 273f 00cd 283f
00000020: 8fdb 193f 7a6d 193f f686 0d3f 0836 033f
00000030: a4c5 1a3f 9e0e 263f 194c 143f d12b 203f
00000040: 7151 0c3f 0d64 1f3f 3a12 7c3d 40d3 173d
00000050: e071 0e3d f0d5 fd3c 0092 113a c332 9e3d
00000060: 28ae 1dbc ea1e 90bd e09e 29bd 13a6 0a3f
00000070: 23dc 0d3f a03e 16bf 56a1 0b3f 53e7 203f
00000080: bd3e fb3e 82a7 f63e b842 fd3e a7bb 253e
00000090: fd82 a83d e08b 70bc 7bb0 2cbd 289f 73bc
000000a0: b0eb 973c dbe9 8abd ae5a 233d 70ff 82bc
000000b0: c816 4b3c 488e 5f3c 2cb2 f23c 388b 053c
000000c0: 8b10 21bd 92bd 403d 6491 91bc d377 63bd
000000d0: 72af 5c3d 7b4a 44bd 19c9 e3be 1512 94be
000000e0: 63e5 2d3e a5cc df3d a1ec 483e 5502 76be
000000f0: 5537 923e 3d2a 883e 9129 c7be 4704 073f
00000100: 1127 0e3f 8ffe 013f c22a 193f 5bb3 2a3f
00000110: 81e2 243f ab9f 013f bdf1 0a3f 5dd9 173f
00000120: ca61 aabd 5cc0 db3c 1055 e53c e82e 193d
00000130: 626f 563d 804f 2fbb 0b9a 68bd 0d49 a23d
00000140: 9c4e bdbc bec8 0b3f b083 253f b089 263f
00000150: 3008 143f c313 0f3f 623e 123f fc39 1c3f
00000160: 1b12 083f 61f5 243f 7777 a53d 72cb 673d
00000170: 402d 9fbd c03a 44bc 26f7 9fbd e672 cabc
00000180: a97b 893d c4c2 e63c 8868 95bd 422b 1f3f
00000190: e4a9 143f d552 253f 0d0c 093f c106 1c3f
000001a0: a631 143f ceb0 023f f1c3 163f 983d 283f
000001b0: 8f22 1f3f 209e 073f 2734 1b3f 936c 133f
000001c0: d0a6 083f d67e 223f 1280 253f e717 053f
000001d0: 8b3a 283f ad35 e43e debf 043f a504 093f
000001e0: 3290 e53e 827a 193f 5c06 0d3f 61d5 0a3f
000001f0: 3b19 153f 1d90 1e3f a431 80bd d0ac 9abd
00000200: 706e bcbb 815b 973d 8811 523c 113d 3c3d
00000210: ec27 813c a613 3e3d 8f8f 14bd 74f1 103f
00000220: 409f 0d3f 0776 043f 42e2 153f 8364 253f
00000230: cb38 003f ee65 063f 80c6 2a3f c743 093f
00000240: 942a aabd 8822 aabd 8033 a1bd b5fe 8a3d
00000250: 6ab6 033d 6c10 c53c 00da e6bc f8a8 1fbd
00000260: 78da 283d 5da0 803d c6c1 7b3d 2b24 a7bd
00000270: 1024 83bb 4956 a23d 1635 90bd c032 fdbc
00000280: 9644 86bd b72b 983d 8056 dabb dc9c ffbc
00000290: f412 ba3c b8a3 25bd 2036 63bb 60db 6bbb
000002a0: 405b 9eba 7088 c63b a6d8 0abd 60f8 67bc
000002b0: f3e8 41bd ceea 183d d69e 4a3d 7c8e 823c
000002c0: faac 373d 5e92 28bd 880a 663c be7f 233d
000002d0: 83ba 91bd 636a 41bd 1ac3 4c3d 3013 9dbb
000002e0: a23e 91bd e07f 8abd 8014 803c 5eea 693d
000002f0: a0fc 2f3b 1267 403d 609c 25bc 187d 123c
00000300: 20c1 24bd f63d 7cbd 7019 efbc d01f 26bd
00000310: 984e 43bc 90fd aabb 9a13 453d 301a b03c
00000320: 20f2 083d ebbb 12bd 8951 853d 1a04 4c3d
00000330: d27c 713d a235 013d 6637 efbc ef73 9ebd
00000340: 4b05 50bd 8d8d 923d cc18 f1bc c007 56bc
00000350: b421 e13c 6f77 903d 06bb 33bd 9637 44bd
00000360: e29b 6b3d 4238 0d3d 186c 463c 7c1d f2bc
00000370: 70b6 efbc e69d 88bd 5d72 a23d a077 b43c
00000380: 80ff 8e3b b886 84bd 3ce3 81bc 70b1 ecbc
00000390: 7098 063d 9219 333d 585f 68bc a0be 11bd
000003a0: 1b4e 38bd 001b 573c 90a6 d2bb 0696 20bd
000003b0: ddac 873d f085 c1bc 1644 2c3d d396 9cbd
000003c0: a891 2ebc 1c19 a2bd 12c5 603d b3e3 8a3d
000003d0: c06f a73a f693 3fbd 0cd4 93bc 04a3 98bc
000003e0: b1cf a23d 26bb a0bd 9b73 2bbd 9f05 84bd
000003f0: 7693 93bd b3cd 14bd 88bb 093d 5e9e 24bd

bias f4 [32]
0.5679169 0.022317149 -0.078566134 -0.6674503 0.6758441 0.6699425 0.6253456 -0.60531193
-0.541318 0.003650643 -0.063063785 -0.059164934 -0.08299243 -0.07824393 0.5794545 0.5951861
-0.5521083 -0.5800986 0.6089289 -0.06531598 0.57254964 0.6551647 0.6391178 -0.6076845
-0.06522451 -0.07028233 0.60754657 -0.030682497 -0.0009069219 -0.52340966 0.56442356 -0.52057594
00000000: 0163 113f 74d2 b63c 48e7 a0bd 06de 2abf
00000010: 1e04 2d3f 5a81 2b3f a616 203f b9f5 1abf
00000020: d193 0abf a03f 6f3b 9627 81bd ee56 72bd
00000030: eff7 a9bd 5b3e a0bd 2157 143f 1e5e 183f
00000040: f856 0dbf 5881 14bf c4e2 1b3f 62c4 85bd
00000050: 9d92 123f e0b8 273f 399d 233f 3691 1bbf
00000060: 6e94 85bd 2ff0 8fbd 2c88 1b3f dc59 fbbc
00000070: 80be 6dba 2dfe 05bf 107e 103f 7744 05bf

weight f4 [64, 32, 3, 3]
0.0120401345 0.041859996 -0.042027332 -0.043368615 -0.053219963 -0.012246482 -0.016832117 0.0038689487
0.037095543 0.020003077 -0.008494563 -0.03092697 -0.022146989 0.047990497 0.035084818 -0.050605904
-0.04458358 0.043040674 0.0041137226 -0.04023745 0.019498538 0.024096172 0.013369743 -0.0015198849
-0.038031667 -0.020434547 -0.020452242 -0.031457953 0.014771637 -0.03276642 -0.05798038 0.0035582632
-0.01201538 -0.00811296 0.017099578 -0.035954162 -0.01079886 -0.0074938275 0.04170193 0.0529334
0.052266184 0.010160442 0.0073605217 0.0017050989 0.007246334 0.020353872 0.017134141 -0.03116286
-0.058779247 -0.03188265 -0.014439214 -0.040409625 0.039894987 -0.057892103 -0.032380264 0.033133004
0.05030733 0.022165027 0.053354356 -3.897026e-05 -0.006164249 0.029915724 0.03864302 -0.02111964
0.041386675 0.05022045 -0.014956567 0.002686236 -0.0038004853 -0.00822942 -0.036515273 -0.01517174
0.019696813 0.057342667 0.030333336 -0.027988717 0.03998128 -0.030096173 -0.0053319633 0.039954398
-0.0066199973 0.022689346 0.054190468 -0.04631575 -0.02264046 0.056592193 0.03719249 0.04687426
0.05541868 -0.027125403 -0.018729478 0.041767973 -0.0020482726 0.010923479 0.027289804 -0.022060376
0.05523366 -0.024717927 -0.038125772 0.030202892 -0.0065189153 -0.038498443 -0.03303399 0.048364338
-0.050385214 -0.053305298 -0.05358195 0.00592554 0.048957746 0.027525123 0.02157132 0.049549226
0.044041608 -0.017059766 0.048338693 -0.010179371 -0.057067987 0.0564992 -0.01780115 0.05114792
-0.019149344 0.040691163 0.03576939 -0.040354915 0.0041767918 0.011489708 0.026214924 -0.025295153
0.05647691 0.053642567 -0.039748557 -0.05176523 -0.015419003 0.011651654 -0.04241685 0.056698035
-0.04366879 0.03019416 -0.03945819 -0.022502791 0.051747497 -0.023595162 -0.02723391 -0.025892012
-0.028505895 0.052800816 -0.011542421 -0.016633913 0.050865073 -0.03715021 0.012136932 0.0448695
0.048651587 -0.041858234 -0.0004294552 0.047160592 0.008263711 -0.02255376 0.04367364 0.03363047
-0.00031610206 0.05230021 0.010679554 0.0584472 -0.023545787 -0.032745805 -0.041092727 -0.049058862
0.0053235926 -0.03282053 0.0041828267 -0.027906425 -0.041386634 0.045347657 -0.017659489 -0.020754695
-0.043941997 0.04944968 -0.0092464425 -0.03237994 -0.056466993 0.041716624 0.027062137 0.034760717
-0.0033610351 -0.009858564 0.03440536 -0.005166102 0.02653655 -0.029662622 -0.019636624 0.008652683
-0.03836884 0.017426398 0.01275089 -0.042560697 -0.010526374 0.028449517 0.008437652 0.014834475
0.04518162 0.029355023 0.007825915 -0.032012075 0.027529392 0.018109698 0.03545886 -0.058663994
-0.0030074865 0.03627873 0.041803572 -0.05677944 -0.04144778 0.043501396 0.05130436 -0.049263217
0.055310596 0.027724106 -0.0006640516 0.056296017 -0.027622603 -0.023926817 0.002030179 0.04128835
0.04753642 0.044665355 0.035461914 0.027000774 0.052265022 0.0060661323 0.031109001 -0.038041037
0.005108509 0.028863054 0.0073186494 0.05382729 0.05683623 -0.019438673 0.020940315 0.033497784
0.045577627 0.017302599 0.05180965 0.014577944 0.055773664 -0.031442396 -0.029341849 0.0567228
0.03206643 -0.005770389 0.0443339 -0.032512285 -0.03718534 -0.009266939 -0.044598103 0.013986576
00000000: fc43 453c 6375 2b3d da24 2cbd 4aa3 31bd
00000010: 2dfd 59bd 78a5 48bc 82e3 89bc 308e 7d3b
00000020: 7ff1 173d 7edd a33c c82c 0bbc 8f5a fdbc
00000030: 9a6d b5bc af91 443d 19b5 0f3d 2348 4fbd
00000040: 469d 36bd 6b4b 303d 68cc 863b 06d0 24bd
00000050: 66bb 9f3c 5665 c53c c40c 5b3c e036 c7ba
00000060: 18c7 1bbd 5a66 a7bc 768b a7bc 0eda 00bd
00000070: bc04 723c 1536 06bd d67c 6dbd c031 693b
00000080: 28dc 44bc 38ec 04bc 6a14 8c3c ac44 13bd
00000090: b4ed 30bc c88e f5bb a5cf 2a3d b1d0 583d
000000a0: 1115 563d fc77 263c 8830 f13b a07d df3a
000000b0: a872 ed3b 2abd a63c e65c 8c3c 4149 ffbc
000000c0: 82c2 70bd 6297 02bd 7492 6cbc 9084 25bd
000000d0: ed68 233d 4520 6dbd 2ba1 04bd 79b6 073d
000000e0: 0f0f 4e3d 6e93 b53c 198a 5a3d 0074 23b8
000000f0: 78fd c9bb d211 f53c 2548 1e3d 1803 adbc
00000100: 1385 293d f5b3 4d3d 640c 75bc 900b 303b
00000110: 9011 79bb b0d4 06bc 0a91 15bd e492 78bc
00000120: 365b a13c 25e0 6a3d 9e7d f83c 9848 e5bc
00000130: 69c3 233d 408c f6bc c0b7 aebb 39a7 233d
00000140: 90ec d8bb 02df b93c d3f6 5d3d 95b5 3dbd
00000150: 7c78 b9bc 37cd 673d 2757 183d 39ff 3f3d
00000160: b3fe 623d 1836 debc 906e 99bc e514 2b3d
00000170: 503c 06bb 64f8 323c de8e df3c f6b7 b4bc
00000180: b13c 623d 407d cabc c529 1cbd 0e6c f73c
00000190: a09c d5bb 8bb0 1dbd a64e 07bd af19 463d
000001a0: ba60 4ebd a856 5abd bf78 5bbd 082b c23b
000001b0: eb87 483d 5e7c e13c 56b6 b03c 21f4 4a3d
000001c0: f964 343d ecc0 8bbc cbfe 453d 60c7 26bc
000001d0: 1fc0 69bd b56b 673d b8d3 91bc 7b80 513d
000001e0: 16df 9cbc c7ab 263d ed82 123d 324b 25bd
000001f0: 78dd 883b 543f 3c3c aec0 d63c c837 cfbc
00000200: 5554 673d 4fb8 5b3d 62cf 22bd c707 54bd
00000210: fc9f 7cbc 94e6 3e3c 4abd 2dbd 333c 683d
00000220: 0cde 32bd be59 f73c e99e 21bd c657 b8bc
00000230: 2ff5 533d a44a c1bc a619 dfbc 7c1b d4bc
00000240: 3285 e9bc ab45 583d 6c1c 3dbc d843 88bc
00000250: e557 503d d22a 18bd fcd9 463c 15c9 373d
00000260: e346 473d 8a73 2bbd 8028 e1b9 772b 413d
00000270: 8464 073c aac2 b8bc 21e3 323d 1bc0 093d
00000280: 80ba a5b9 bf38 563d 4cf9 2e3c 5566 6f3d
00000290: 18e3 c0bc 7720 06bd d950 28bd f2f1 48bd
000002a0: 8871 ae3b d26e 06bd 1810 893b 049c e4bc
000002b0: 0885 29bd 77be 393d a2aa 90bc c005 aabc
000002c0: 86fc 33bd bf8b 4a3d 647e 17bc d4a0 04bd
000002d0: ef49 67bd 0ddf 2a3d 6ab1 dd3c 4161 0e3d
000002e0: d044 5cbb d085 21bc a3ec 0c3d 6848 a9bb
000002f0: 2e63 d93c 07ff f2bc fcdc a0bc fcc3 0d3c
00000300: a528 1dbd cec1 8e3c 1ce9 503c 2054 2ebd
00000310: d076 2cbc f60e e93c 143e 0a3c 4c0c 733c
00000320: 5d10 393d f279 f03c 4438 003c 181f 03bd
00000330: 5285 e13c ca5a 943c 4f3d 113d a849 70bd
00000340: 4019 45bb 0199 143d 393a 2b3d 8f91 68bd
00000350: 26c5 29bd 852e 323d 8524 523d 3ac8 49bd
00000360: 5d8d 623d aa1d e33c c013 2eba a796 663d
00000370: cc48 e2bc 2c02 c4bc c00c 053b f91d 293d
00000380: 8db5 423d 05f3 363d 8340 113d ba30 dd3c
00000390: d913 563d 68c6 c63b 4ed8 fe3c ebd0 1bbd
000003a0: 4865 a73b 3672 ec3c 48d1 ef3b 017a 5c3d
000003b0: 1bcd 683d da3d 9fbc 068b ab3c f934 093d
000003c0: 9baf 3a3d 2ebe 8d3c 5b36 543d 54d8 6e3c
000003d0: ed72 643d bec9 00bd 515e f0bc 2b56 683d
000003e0: 1758 033d 8815 bdbb 7797 353d 9a2b 05bd
000003f0: a84f 18bd 5cd4 17bc 80ac 36bd f427 653c

bias f4 [64]
-0.0455578 -0.054985903 0.61896735 0.6369844 0.5550481 -0.553645 -0.0125766285 -0.5899171
-0.54231286 -0.052923482 -0.6082368 0.60811996 -0.020180043 0.57441247 -0.024122383 -0.05003046
0.6152425 -0.036586 0.012807954 -0.04030237 0.6331344 0.6277597 -0.041445434 -0.55004185
-0.012524687 -0.6398262 0.63263667 -0.5400716 -0.5583484 0.00318468 0.62868434 -0.027007032
0.6002779 -0.5729807 -0.014917489 0.0028313473 -0.04259564 0.5992549 0.6367172 -0.024898794
0.6337109 0.623461 -0.028416276 -0.035616234 -0.0027741678 0.019733306 -0.020370055 0.6390513
0.028783228 -0.019031204 -0.014905065 -0.6114822 0.6312656 -0.0073198266 0.65497917 -0.039424337
-0.05143204 0.6155716 0.6303412 0.6207427 -0.62094826 0.63626677 -0.010827273 -0.041710917
00000000: d19a 3abd e638 61bd a574 1e3f 6911 233f
00000010: a217 0e3f aebb 0dbf 340e 4ebc cf04 17bf
00000020: 04d5 0abf 4bc6 58bd 68b5 1bbf c0ad 1b3f
00000030: 9e50 a5bc b20c 133f 4e9c c5bc bdec 4cbd
00000040: 8880 1d3f 34db 15bd 74d8 513c 1914 25bd
00000050: 1915 223f dcb4 203f b0c2 29bd 8bcf 0cbf
00000060: 5834 4dbc a6cb 23bf 7af4 213f 2242 0abf
00000070: ecef 0ebf 10b6 503b 75f1 203f da3d ddbc
00000080: d0ab 193f ddae 12bf 7c68 74bc 208e 393b
00000090: c478 2ebd c568 193f e6ff 223f 8ef8 cbbc
000000a0: e13a 223f 249b 1f3f 40c9 e8bc 54e2 11bd
000000b0: d0ce 35bb bea7 a13c 1adf a6bc de98 233f
000000c0: ceca eb3c 54e7 9bbc 6034 74bc 198a 1cbf
000000d0: 9f9a 213f 28db efbb b7ac 273f 6a7b 21bd
000000e0: 67aa 52bd 1a96 1d3f 0a5e 213f fee8 1e3f
000000f0: 77f6 1ebf 61e2 223f e064 31bc 11d9 2abd

weight f4 [64, 64, 3, 3]
-0.012243763 -0.0008241683 0.0016837306 -0.03651344 0.036737014 -0.024790496 -0.026936546 0.020054981
0.0045517944 -0.0016508736 -0.023094838 0.03694718 -0.016622653 -0.006970126 0.007315118 0.023444828
-0.025348922 0.024099793 -0.6315882 -0.6207677 -0.6203221 -0.57105607 -0.5772692 -0.57688564
-0.5926014 -0.60358435 -0.5987512 -0.5828152 -0.51044804 -0.5511898 -0.4981042 -0.53920466
-0.4581278 -0.55770224 -0.50424045 -0.49550316 -0.6111391 -0.608169 -0.636068 -0.5751676
-0.5889863 -0.5870846 -0.5781243 -0.627102 -0.6372817 -0.5183376 -0.54677397 -0.53639776
-0.47826588 -0.5240263 -0.5450642 -0.50792116 -0.5575512 -0.5936111 -0.0222933 0.04148167
-0.006389294 -0.024902925 0.0151081085 -0.017908564 0.009098634 0.01278225 0.015076727 -0.60526824
-0.6098638 -0.6285224 -0.5757202 -0.6046979 -0.55848545 -0.63420683 -0.63094217 -0.55542
-0.6002573 -0.6387183 -0.5590803 -0.5843658 -0.5801224 -0.57609165 -0.5668466 -0.6151018
-0.6077284 -0.017497918 0.041265134 -0.0055182315 0.029357899 0.0052606016 -0.004047226 0.035102364
0.021487724 0.005502846 -0.5898896 -0.6082802 -0.6181922 -0.5942478 -0.60478854 -0.59602284
-0.58912146 -0.61087143 -0.6204853 -0.24246755 -0.40077955 -0.38343233 -0.039974697 -0.33543417
-0.4204067 -0.20336947 -0.35300028 -0.49637666 -0.008949611 -0.011938289 0.02889422 -0.034885764
-0.014605131 -0.023734286 -0.0121206455 0.014514338 0.0015320741 -0.63593084 -0.6394098 -0.5666584
-0.59077007 -0.6354007 -0.5901903 -0.58707833 -0.60218847 -0.61356765 0.040717725 0.01603812
0.0015959144 -0.019207489 -0.019665565 0.0031828135 0.00028180704 -0.01774846 -0.0057703964 0.041221816
-0.03065519 0.016377572 0.030829858 -0.0058365576 0.03293008 0.007087525 -0.0010807328 -0.017101413
-0.58239996 -0.58065146 -0.6387863 -0.60016984 -0.6249743 -0.5587756 -0.60295624 -0.6048916
-0.62388885 -0.01780746 -0.016436502 0.02087747 -0.011107197 -0.023859829 -0.03622961 0.020266574
0.032318998 0.0012888573 0.03581078 0.026389498 -0.03809836 0.031296123 -0.039878976 0.030221451
0.017913762 -0.026613101 -0.012345027 0.035525892 0.020910714 0.008400004 0.037083033 0.025935795
-0.013954282 -0.021726137 -0.0277511 -0.03640121 -0.5657646 -0.61204594 -0.6360986 -0.6011695
-0.6062888 -0.5583257 -0.57632303 -0.5839202 -0.59572583 -0.5837948 -0.621932 -0.5956206
-0.6144206 -0.5782384 -0.5841044 -0.5699424 -0.6283697 -0.5888019 0.021791544 0.0026831478
0.031427268 -0.021885674 -0.020825326 -0.011850491 -0.0037061833 -0.027350819 -0.025711467 -0.5997037
-0.62527627 -0.5683125 -0.5972239 -0.5648512 -0.62767506 -0.59161586 -0.58523583 -0.5806529
-0.02861081 -0.00090901926 0.03859316 -0.009207651 -0.02686913 0.02012651 -0.037955977 -0.028387537
-0.025869831 -0.5011738 -0.49920526 -0.4411154 -0.5010453 -0.30044004 -0.21454932 -0.36455333
0.26359168 0.39489153 -0.63713956 -0.58427006 -0.60623103 -0.586246 -0.6230118 -0.5782463
-0.5678754 -0.57688004 -0.5749261 -0.6010137 -0.58902806 -0.5711494 -0.61806375 -0.6268728
-0.56041783 -0.5620752 -0.62930065 -0.5972482 -0.56813484 -0.6053804 -0.57667243 -0.5644465
00000000: 109a 48bc 000d 58ba a0b0 dc3a 1e8f 15bd
00000010: 8d79 163d 7015 cbbc 08aa dcbc 584a a43c
00000020: 3827 953b 2062 d8ba 6331 bdbc ed55 173d
00000030: 3b2c 88bc a865 e4bb a8b3 ef3b 5e0f c03c
00000040: 8ba8 cfbc ee6c c53c c4af 21bf a2ea 1ebf
00000050: 6ecd 1ebf bb30 12bf eac7 13bf c7ae 13bf
00000060: bab4 17bf 8184 1abf c247 19bf 6033 15bf
00000070: b9ac 02bf c61a 0dbf 8407 ffbe 5109 0abf
00000080: ba8f eabe 93c5 0ebf e715 01bf 97b2 fdbe
00000090: 9d73 1cbf f7b0 1bbf 5ad5 22bf 2f3e 13bf
000000a0: cec7 16bf 2d4b 16bf f4ff 13bf c289 20bf
000000b0: e524 23bf c6b1 04bf 61f9 0bbf 5d51 09bf
000000c0: 44df f4be 9626 06bf 5489 0bbf 1f07 02bf
000000d0: adbb 0ebf e6f6 17bf 70a0 b6bc afe8 293d
000000e0: 485d d1bb 3801 ccbc 0088 773c fbb4 92bc
000000f0: 7012 153c a46c 513c 6004 773c dcf2 1abf
00000100: 0920 1cbf d8e6 20bf 6662 13bf 7bcd 1abf
00000110: e7f8 0ebf 615b 22bf 6d85 21bf 0130 0ebf
00000120: 76aa 19bf 0b83 23bf e31f 0fbf ff98 15bf
00000130: e782 14bf be7a 13bf dc1c 11bf 5077 1dbf
00000140: 1794 1bbf cb57 8fbc a105 293d 48d2 b4bb
00000150: fa7f f03c 2061 ac3b 989e 84bb 7fc7 0f3d
00000160: 0607 b03c 3851 b43b 0103 17bf 40b8 1bbf
00000170: d841 1ebf a020 18bf 6cd3 1abf f494 18bf
00000180: aad0 16bf 1262 1cbf 20d8 1ebf 6a49 78be
00000190: fa32 cdbe 3e51 c4be 82bc 23bd 07be abbe
000001a0: 8c3f d7be 1640 50be 74bc b4be 1525 febe
000001b0: 64a1 12bc d098 43bc 92b3 ec3c 60e4 0ebd
000001c0: 5c4a 6fbc 686e c2bc ac95 46bc 8ccd 6d3c
000001d0: e0cf c83a 5dcc 22bf 5cb0 23bf 8610 11bf
000001e0: b53c 17bf 9fa9 22bf b616 17bf c44a 16bf
000001f0: 0629 1abf c512 1dbf a1c7 263d 6062 833c
00000200: 002e d13a 0659 9dbc ae19 a1bc c096 503b
00000210: 80bf 9339 3865 91bc 9815 bdbb 35d8 283d
00000220: 9820 fbbc 422a 863c e68e fc3c 9840 bfbb
00000230: b1e1 063d 783e e83b 60a7 8dba 4318 8cbc
00000240: 2a18 15bf 93a5 14bf 8087 23bf bba4 19bf
00000250: 51fe 1fbf eb0b 0fbf 575b 1abf 2dda 1abf
00000260: 2eb7 1fbf f3e0 91bc d8a5 86bc 3a07 ab3c
00000270: f6fa 35bc b075 c3bc 8065 14bd 1606 a63c
00000280: ed60 043d e0ee a83a 53ae 123d ca2e d83c
00000290: 070d 1cbd 5d30 003d 2358 23bd fa92 f73c
000002a0: e2bf 923c b803 dabc cc42 4abc 9983 113d
000002b0: f24c ab3c 2ca0 093c 61e4 173d 4e77 d43c
000002c0: 80a0 64bc 03fb b1bc 4656 e3bc 6f19 15bd
000002d0: f3d5 10bf 0baf 1cbf 5cd7 22bf 3fe6 19bf
000002e0: be35 1bbf 6fee 0ebf e889 13bf cb7b 15bf
000002f0: 7d81 18bf 9373 15bf f036 1fbf 977a 18bf
00000300: ab4a 1dbf 6f07 14bf de87 15bf bfe7 11bf
00000310: d6dc 20bf b9bb 16bf 2e84 b23c c0d7 2f3b
00000320: e1b9 003d 9649 b3bc e099 aabc 9028 42bc
00000330: 70e3 72bb d30e e0bc dba0 d2bc 2f86 19bf
00000340: 1b12 20bf ee7c 11bf aae3 18bf 179a 10bf
00000350: 50af 20bf 2374 17bf 04d2 15bf aba5 14bf
00000360: 3861 eabc 404b 6eba dd13 1e3d b0db 16bc
00000370: a61c dcbc 5ae0 a43c ba77 1bbd fb8c e8bc
00000380: f8ec d3bc ed4c 00bf d597 ffbe e1d9 e1be
00000390: 8144 00bf 47d3 99be d1b2 5bbe bca6 babe
000003a0: 7df5 863e 392f ca3e 941b 23bf b992 15bf
000003b0: f531 1bbf 3814 16bf b47d 1fbf f307 14bf
000003c0: 4860 11bf 69ae 13bf 5b2e 13bf 09dc 19bf
000003d0: 8bca 16bf d936 12bf 6d39 1ebf bc7a 20bf
000003e0: 8b77 0fbf 29e4 0fbf d919 21bf 42e5 18bf
000003f0: 4971 11bf 36fa 1abf cea0 13bf 917f 10bf

bias f4 [64]
-0.5578595 -0.02189134 -0.022254527 -0.0109069105 -0.021747729 -0.00011437014 0.5832471 -0.020442437
0.597727 0.61744577 -0.020875042 0.009979863 0.6126815 0.6282052 -0.57380176 -0.5599871
-0.029666102 -0.5650068 -0.5663306 -0.023136705 -0.023018857 0.626811 -0.013225969 -0.5922491
0.638967 0.006724596 -0.59772533 -0.58211875 -0.6112583 0.61961275 -0.0323416 -0.5858633
-0.59731317 -0.0045987517 -0.03419879 -0.58050054 -0.028432405 -0.0115497075 -0.029717153 0.6222764
0.6141283 0.59387004 0.6248543 -0.006514162 -0.5707762 -0.035730984 0.60707885 -0.5962437
-0.03009443 -0.036249828 -0.03692059 -0.0071542263 -0.00022855029 -0.5644024 0.58817405 0.5835958
-0.5617115 0.5932659 -0.023212414 -0.58647037 -0.5748368 0.015485212 -0.021783656 0.0125692375
00000000: e1cf 0ebf 7855 b3bc 204f b6bc e6b2 32bc
00000010: 4b28 b2bc 00da efb8 af4f 153f e676 a7bc
00000020: a304 193f ed10 1e3f 2302 abbc 9482 233c
00000030: b2d8 1c3f 0ed2 203f ace4 12bf 515b 0fbf
00000040: 5306 f3bc 49a4 10bf 0bfb 10bf 3089 bdbc
00000050: 0b92 bcbc b076 203f bcb1 58bc a39d 17bf
00000060: 5793 233f 005a dc3b 8704 19bf bc05 15bf
00000070: 6d7b 1cbf f19e 1e3f a078 04bd 23fb 15bf
00000080: 84e9 18bf 20b1 96bb 0814 0cbd af9b 14bf
00000090: 13eb e8bc fc3a 3dbc 6371 f3bc 824d 1f3f
000000a0: 8337 1d3f de07 183f 74f6 1f3f c074 d5bb
000000b0: 641e 12bf a75a 12bd 8569 1b3f 6da3 18bf
000000c0: 9888 f6bc b37a 14bd 0b3a 17bd 006e eabb
000000d0: 00a7 6fb9 ad7c 10bf 9392 163f 8966 153f
000000e0: 53cc 0fbf 46e0 173f f627 bebc ec22 16bf
000000f0: 8128 13bf b0b5 7d3c a373 b2bc 34ef 4d3c

weight f4 [128, 1024]
0.5681777 0.59538615 0.59058124 0.62095505 0.5807037 0.6261126 0.59936947 0.5939765
0.5683231 0.6093478 0.59638256 0.599366 0.6065688 0.5861765 0.5879143 0.57821995
0.010614954 -0.024294615 0.0020104982 0.023450911 0.024739824 -0.02666539 -0.0019801334 -0.021891277
-0.0024161637 -0.010535084 0.0036752224 -0.022689115 0.021998897 0.022791486 0.0016338155 0.009544183
0.00072204694 -0.00844498 -0.011182554 0.0027720667 -0.02619594 -0.009589884 -0.020590048 0.0038698763
0.018050231 0.028145194 0.0006498024 -0.029453445 0.019799717 -0.0258452 0.026866108 -0.008544855
-0.016150542 -0.02186536 0.0063048564 0.020227872 -0.020391308 -0.017333679 0.028125796 0.015096322
-0.02271156 0.031018961 0.029707272 -0.014785953 -0.020096764 0.015237141 -0.022427235 -0.017196972
0.025223102 0.02277575 -0.0068641305 0.028704736 -0.017416403 0.018796746 0.01654081 0.013404537
-0.02665165 0.013013352 -0.0045757033 -0.0096042305 -0.011654522 0.0235716 -0.030641142 -0.013372008
-0.024289258 0.018623676 0.00043142214 -0.029239777 -0.003124196 0.0058767535 0.022319127 -0.0015623495
0.019169807 -0.02649425 0.004016053 -0.0059365183 0.021554567 -0.010505836 -0.013557408 0.013204973
0.28689772 0.4087486 0.5069487 0.4836465 0.009898551 0.15931557 0.43377012 0.3998879
0.02243714 -0.012517884 0.25492144 0.24326687 0.00015447661 0.011232797 0.22370002 -0.020640064
-0.005888626 0.02425564 0.0170069 0.019077387 -0.00039267167 -0.022840261 0.02364048 0.022190563
0.0021860972 0.007879142 0.011860471 -0.00629279 -0.003714081 -0.014011484 -0.0031640492 0.031096056
0.60031384 0.5919041 0.5852232 0.574469 0.61185986 0.60438144 0.5791392 0.6079102
0.5710933 0.5722789 0.58734477 0.5753217 0.58055973 0.590972 0.56680244 0.5771965
0.580142 0.5869737 0.6223851 0.6153444 0.6030682 0.61484617 0.62156063 0.6212942
0.56892514 0.62586224 0.56732035 0.61663425 0.61824 0.6040428 0.6110106 0.61280376
0.020763751 -0.014128763 -0.025548495 0.004491128 0.0017109998 -0.0013997033 -0.021875646 -0.015718412
-0.0013889484 0.0006817132 -0.016396344 0.020129818 0.030940175 0.00065439567 0.013302449 -0.011540242
-0.020845301 0.015928067 -0.007701874 -0.023466364 -0.005909659 0.017558847 0.026168566 -0.0056927204
-0.0028596856 0.0064267665 0.019808695 0.024867062 0.026798692 0.011003334 0.0067234896 0.01026085
0.6055074 0.60963356 0.5941956 0.5921252 0.59053016 0.5834258 0.57819104 0.5798332
0.5847304 0.61308783 0.6207413 0.6241419 0.5815681 0.60789126 0.5757368 0.5897971
0.012635715 0.019203767 -0.02052001 0.17793107 -0.021891437 0.01917072 -0.016811732 0.003107559
0.018980559 -0.016755711 -0.020346366 -0.004481584 0.021461114 0.010844205 -0.019256625 0.012446918
0.61767507 0.593 0.6184971 0.61728853 0.61613697 0.5900915 0.6110368 0.6147625
0.60630035 0.61080635 0.6144576 0.61879295 0.62158096 0.59681004 0.57307684 0.6226573
0.6176309 0.6090781 0.6199184 0.62347287 0.6109207 0.6094541 0.5817777 0.5994808
0.58994657 0.58052844 0.5869666 0.5770867 0.6222879 0.6199449 0.6225164 0.5921508
00000000: 1874 113f 3a6b 183f 5530 173f e9f6 1e3f
00000010: ffa8 143f ea48 203f 4770 193f d80e 183f
00000020: 9f7d 113f 38fe 1b3f 87ac 183f 0d70 193f
00000030: 1848 1b3f aa0f 163f 8d81 163f 3906 143f
00000040: 58ea 2d3c 8005 c7bc 90c2 033b 201c c03c
00000050: 2cab ca3c 6071 dabc 20c5 01bb 5655 b3bc
00000060: 8058 1ebb 589b 2cbc 00dc 703b 86de b9bc
00000070: 0837 b43c 36b5 ba3c c025 d63a 345f 1c3c
00000080: c047 3d3a d05c 0abc 0837 37bc 90ab 353b
00000090: de98 d6bc e41e 1dbc 76ac a8bc c09d 7d3b
000000a0: 14de 933c c090 e63c 8057 2a3a 5a48 f1bc
000000b0: 0433 a23c 50b9 d3bc 5016 dc3c b8ff 0bbc
000000c0: 244e 84bc fc1e b3bc f898 ce3b ecb4 a53c
000000d0: ac0b a7bc 5cff 8dbc 1268 e63c 9056 773c
000000e0: 980d babc 7a1b fe3c aa5c f33c c840 72bc
000000f0: f8a1 a4bc 34a5 793c 52b9 b7bc aae0 8cbc
00000100: aea0 ce3c 3694 ba3c 80ec e0bb 3226 eb3c
00000110: d8ac 8ebc a2fb 993c 9880 873c b49e 5b3c
00000120: 9054 dabc f435 553c c8ef 95bb 105b 1dbc
00000130: 9cf2 3ebc 3a19 c13c 2203 fbbc 4416 5bbc
00000140: 44fa c6bc ae90 983c 8030 e239 4288 efbc
00000150: 50bf 4cbb c891 c03b 9ad6 b63c c0c7 ccba
00000160: 000a 9d3c 780a d9bc 1899 833b 2087 c2bb
00000170: 3493 b03c ac20 2cbc e41f 5ebc ac59 583c
00000180: 42e4 923e 7f47 d13e 64c7 013f 84a0 f73e
00000190: 882d 223c 9f23 233e 1e17 de3e 1bbe cc3e
000001a0: 18ce b73c d017 4dbc 1085 823e f31a 793e
000001b0: 00fb 2139 c409 383c 9e11 653e 5a15 a9bc
000001c0: 60f5 c0bb c4b3 c63c 0e52 8b3c 2e48 9c3c
000001d0: 80df cdb9 801b bbbc aea9 c13c fcc8 b53c
000001e0: a044 0f3b 8417 013c 6c52 423c c033 cebb
000001f0: f067 73bb 6c90 65bc f05b 4fbb 28bd fe3c
00000200: 2bae 193f 0787 173f 30d1 153f 6610 133f
00000210: d9a2 1c3f beb8 1a3f 7742 143f 01a0 1b3f
00000220: 2c33 123f df80 123f 3a5c 163f 4848 133f
00000230: 909f 143f f149 173f f719 113f 26c3 133f
00000240: 3084 143f e943 163f a154 1f3f 3687 1d3f
00000250: ad62 1a3f 8f66 1d3f 991e 1f3f 230d 1f3f
00000260: 14a5 113f 8238 203f e83b 113f bedb 1d3f
00000270: fa44 1e3f 8da2 1a3f 316b 1c3f b5e0 1c3f
00000280: be18 aa3c 547c 67bc 144b d1bc 502a 933b
00000290: a043 e03a 4076 b7ba 8e34 b3bc e6c3 80bc
000002a0: 600d b6ba 00b5 323a a051 86bc 4ae7 a43c
000002b0: 4076 fd3c c08b 2b3a 84f2 593c 4813 3dbc
000002c0: c4c3 aabc 947b 823c 0060 fcbb 883c c0bc
000002d0: d0a5 c1bb 92d7 8f3c 765f d63c 008a babb
000002e0: 9069 3bbb a097 d23b d845 a23c 02b6 cb3c
000002f0: ee88 db3c 5447 343c b850 dc3b 201d 283c
00000300: 8802 1b3f f210 1c3f 341d 183f 8495 173f
00000310: fc2c 173f 655b 153f 5404 143f f36f 143f
00000320: e4b0 153f 53f3 1c3f e7e8 1e3f c3c7 1f3f
00000330: a6e1 143f c39e 1b3f 7d63 133f f1fc 163f
00000340: 0806 4f3c 3851 9d3c 9419 a8bc 9033 363e
00000350: ac55 b3bc ea0b 9d3c c2b8 89bc 30a8 4b3b
00000360: 1e7d 9b3c 4643 89bc 6cad a6bc 40da 92bb
00000370: 38cf af3c e4ab 313c 12c0 9dbc 28ee 4b3c
00000380: f41f 1e3f d9ce 173f d355 1e3f 9f06 1e3f
00000390: 27bb 1d3f 3d10 173f e86c 1c3f 1361 1d3f
000003a0: 8036 1b3f ce5d 1c3f 184d 1d3f 3769 1e3f
000003b0: ee1f 1f3f 8bc8 183f 2ab5 123f 7866 1f3f
000003c0: 0f1d 1e3f 8bec 1b3f f9b2 1e3f eb9b 1f3f
000003d0: 4d65 1c3f 2f05 1c3f 62ef 143f 9377 193f
000003e0: bd06 173f 839d 143f 7143 163f f4bb 133f
000003f0: 434e 1f3f b5b4 1e3f 3c5d 1f3f 3297 173f

bias f4 [128]
0.6183836 0.014392011 -0.0034262575 -0.5813615 -0.018462595 0.0045797937 -0.59287196 -0.59274787
-0.010901459 -0.5739032 -0.5886989 -0.60023767 0.6058309 -0.0051489435 -0.58417463 -0.019517407
0.61239475 -0.5736055 0.011589464 -0.013596475 0.0051943734 0.5977561 -0.0059697554 -0.0018077306
-0.0007996112 -0.011684205 -0.0059847757 -0.010539196 0.6137478 -0.0059043467 -0.5775873 -0.025359321
-0.023526702 -0.59842896 -0.016330212 0.6124608 0.6221216 0.59905195 -0.5935726 -0.0022790842
-0.009381082 0.0072982907 -0.02784456 -0.012664214 -0.029369578 0.6147257 -0.02748672 0.6088525
-0.022912856 0.6251658 -0.0075610206 -0.0127017535 -0.5962683 0.60208166 -0.014838889 -0.00871741
-0.030989304 -0.021280527 -0.028097108 -0.0073316656 -0.5901192 -0.6034005 -0.5780708 0.594323
-0.01623571 -0.014830805 -0.600525 -0.5802216 -0.021902524 0.6215524 -0.0060872994 -0.59447557
0.58848965 0.6159236 0.62253433 0.6133668 -0.5906123 -0.00899658 -0.029469367 -0.6112113
-0.0038341582 -0.61060685 -0.57321817 0.59771764 -0.009356812 0.6146691 -0.012916822 -0.018693544
-0.027796786 0.60432684 -0.00860576 -0.0162263 -0.5756487 -0.009235766 -0.016949404 0.0180967
-0.56835425 -0.0070763044 0.6285021 -0.009211436 -0.027811125 0.001956921 -0.011643991 -0.0120817125
0.61214375 -0.5742247 -0.5742365 0.6188098 -0.02530545 -0.020594038 -0.59829587 -0.5944985
-0.018051535 -0.019145802 0.6164334 -0.018178482 -0.028402425 -0.5788852 -0.012360964 0.62365663
-0.008118741 -0.0054246522 -0.023461305 -0.0017983094 0.6203589 -0.015765794 -0.027490284 0.6298176
00000000: 634e 1e3f 78cc 6b3c 108b 60bb 1bd4 14bf
00000010: de3e 97bc 1812 963b 75c6 17bf 53be 17bf
00000020: 089c 32bc 52eb 12bf f9b4 16bf 2da9 19bf
00000030: bc17 1b3f 78b8 a8bb 788c 15bf f8e2 9fbc
00000040: e7c5 1c3f cfd7 12bf bce1 3d3c c0c3 5ebc
00000050: 9035 aa3b 8b06 193f f09d c3bb 60f1 ecba
00000060: 009d 51ba 1c6f 3fbc f01b c4bb 98ac 2cbc
00000070: 931e 1d3f 4079 c1bb c3dc 13bf 5abe cfbc
00000080: 12bb c0bc a432 19bf f0c6 85bc 3bca 1c3f
00000090: 5c43 1f3f 785b 193f 60f4 17bf b05c 15bb
000000a0: 1cb3 19bc 8026 ef3b 461a e4bc 907d 4fbc
000000b0: 7898 f0bc aa5e 1d3f d42b e1bc c2dd 1b3f
000000c0: beb3 bbbc de0a 203f 70c2 f7bb 041b 50bc
000000d0: 0aa5 18bf 0622 1a3f d01e 73bc 78d3 0ebc
000000e0: 48dd fdbc 8054 aebc e82b e6bc 783e f0bb
000000f0: 0d12 17bf 7578 1abf 73fc 13bf 8d25 183f
00000100: c000 85bc e8fc 72bc 02bc 19bf 6789 14bf
00000110: ec6c b3bc 0f1e 1f3f f877 c7bb 8d2f 18bf
00000120: 42a7 163f 2bad 1d3f 695e 1f3f 9b05 1d3f
00000130: 5e32 17bf 6466 13bc be69 f1bc 5878 1cbf
00000140: 8046 7bbb bb50 1cbf 6dbe 12bf 0604 193f
00000150: 504d 19bc f45a 1d3f 14a1 53bc 3423 99bc
00000160: 16b6 e3bc 2ab5 1a3f 2cff 0cbc 04ed 84bc
00000170: b75d 13bf 9c51 17bc 7ad9 8abc 883f 943c
00000180: aa7f 11bf 58e0 e7bb 83e5 203f 90eb 16bc
00000190: 28d4 e3bc b03f 003b 70c6 3ebc 60f2 45bc
000001a0: 74b5 1c3f 6400 13bf 2a01 13bf 526a 1e3f
000001b0: 604d cfbc d4b4 a8bc eb29 19bf 0e31 18bf
000001c0: d0e0 93bc a8d7 9cbc 94ce 1d3f 0aeb 94bc
000001d0: 34ac e8bc d231 14bf a485 4abc f6a7 1f3f
000001e0: 7804 05bc 48c1 b1bb ec31 c0bc 40b5 ebba
000001f0: d7cf 1e3f 4427 81bc 4e33 e1bc ba3b 213f
