Output/model.pt (torch, 3927 bytes, 5 tensors)

weight f4 [8, 11]
0.084994555 -0.12029967 -0.10747342 0.17080286 -0.16772658 -0.19691059 0.10768753 -0.07912427
0.025978059 -0.003288865 0.29470253 0.067127705 -0.012496173 0.13547298 0.28593326 0.2645613
0.20726782 0.028585851 -0.007170826 0.28905785 0.10709551 -0.23789027 0.07216632 -0.06753896
-0.29330006 0.09874526 0.2747808 0.28815395 0.033640146 -0.16271299 0.28521663 0.24829662
-0.08692548 0.28764904 -0.24391212 -0.10455741 -0.2680065 -0.20530705 -0.004603982 -0.0976859
-0.095476344 0.22459841 -0.08948429 0.06105706 0.15445223 -0.18835562 -0.27748626 0.033521056
0.0065144002 -0.015182972 -0.17911136 -0.14776698 0.23898435 0.07515761 -0.1703475 -0.08413088
0.22249687 -0.19777319 0.18240026 -0.018161863 -0.18971097 0.23399538 -0.11481254 -0.0800222
-0.22173607 0.088825166 -0.01867643 -0.14129362 -0.0022716522 0.098023236 -0.24823084 0.14963764
0.057499945 0.26835603 -0.1506508 0.028453201 -0.22900018 0.266712 -0.039146006 -0.060194135
0.009187549 -0.23718637 -0.28736648 -0.023071736 0.02967602 -0.1101975 -0.16386439 0.00582397
00000000: a011 ae3d ac5f f6bd 061b dcbd f2e6 2e3e
00000010: 84c0 2bbe eea2 49be 488b dc3d e80b a2bd
00000020: f0cf d43c 008a 57bb 40e3 963e 407a 893d
00000030: c0bc 4cbc 6eb9 0a3e d865 923e 9474 873e
00000040: 043e 543e e02c ea3c 40f9 eabb 64ff 933e
00000050: e454 db3d 8299 73be f0cb 933d de51 8abd
00000060: 6d2b 96be f43a ca3d 12b0 8c3e ea88 933e
00000070: 40ca 093d 3c9e 26be ea07 923e 7841 7e3e
00000080: fc05 b2bd bc46 933e 19c4 79be 3222 d6bd
00000090: 2638 89be 033c 52be 00dd 96bb 8c0f c8bd
000000a0: 1a89 c3bd 20fd 653e 8a43 b7bd f816 7a3d
000000b0: ba28 1e3e 4ce0 40be ae12 8ebe 604d 093d
000000c0: c076 d53b 00c2 78bc f868 37be 3a50 17be
000000d0: 50b8 743e 3cec 993d 936f 2ebe d04c acbd
000000e0: 38d6 633e 0e85 4abe 22c7 3a3e 30c8 94bc
000000f0: 9843 42be 7c9c 6f3e d622 ebbd aee2 a3bd
00000100: c80e 63be f8e9 b53d 50ff 98bc 46af 10be
00000110: 00e0 14bb 68c0 c83d 3a30 7ebe 9c3a 193e
00000120: 1085 6b3d f665 893e 3444 1abe b016 e93c
00000130: 067f 6abe 7a8e 883e 9057 20bd 208e 76bd
00000140: 6087 163c fce0 72be b321 93be f000 bdbc
00000150: 201b f33c 3aaf e1bd 11cc 27be 00d7 be3b

bias f4 [8]
-0.121343344 0.1303317 0.07865608 0.23181105 0.27213788 -0.29026976 0.11395964 0.20908338
00000000: dc82 f8bd ac75 053e 7016 a13d e05f 6d3e
00000010: a855 8b3e 3d9e 94be ac63 e93d f419 563e

weight f4 [4, 8]
0.2848269 0.05787015 -0.18426327 0.1376813 -0.080691904 -0.2752619 -0.050949007 -0.18042834
-0.28706747 0.039087415 -0.29757854 0.2035043 -0.007158935 -0.09877932 0.050942063 0.32576695
0.2660571 -0.11284566 -0.13105187 -0.30061087 0.2575116 -0.33122158 -0.097014636 -0.21513551
-0.086968035 -0.2564321 -0.15996988 0.17608371 -0.3077943 -0.007724762 0.04037842 0.08966291
00000000: d5d4 913e 4009 6d3d 83af 3cbe 54fc 0c3e
00000010: cc41 a5bd 21ef 8cbe e8af 50bd 35c2 38be
00000020: 82fa 92be 201a 203d 375c 98be 6e63 503e
00000030: 8095 eabb d04c cabd a0a8 503d edca a63e
00000040: a338 883e a01b e7bd 7632 06be abe9 99be
00000050: 8fd8 833e e095 a9be 9caf c6bd 7c4c 5cbe
00000060: 4c1c b2bd 114b 83be 25cf 23be 4a4f 343e
00000070: 3797 9dbe 0020 fdbb d863 253d 30a1 b73d

bias f4 [4]
0.16128132 0.09122819 0.14468023 -0.24210426
00000000: ee26 253e d8d5 ba3d 0e27 143e 2eea 77be

weight f4 [1, 4]
0.26881015 -0.16788423 -0.49265558 -0.39828312
00000000: 7ca1 893e d8e9 2bbe 5a3d fcbe c4eb cbbe
